model/model_float16_quant.tflite (tflite, 207584 bytes, 86 tensors)

model/tf.math.add_8/Add/y f2 [64]
000000 03 32 91 33 ca 36 a5 2b 2b 9d 87 a3 ce 33 fc 31
       0.1879 0.2365 0.4243 0.05972 -0.005047 -0.0147 0.2439 0.187
000010 d7 2e d1 36 c1 ad 81 b1 34 39 60 b4 f8 31 ef 36
       0.1069 0.426 -0.0899 -0.172 0.6504 -0.2734 0.1865 0.4333
000020 25 2c 51 34 8c 34 33 38 90 ba 98 38 7e 30 1e ae
       0.06476 0.2698 0.2842 0.525 -0.8203 0.574 0.1404 -0.0956
000030 21 39 59 b0 13 b9 42 36 03 33 ee 37 e8 ae e9 34
       0.641 -0.1359 -0.6343 0.391 0.2191 0.4956 -0.1079 0.307
000040 ac 33 32 32 7b 39 26 35 ce b8 d9 ba a1 2f a6 31
       0.2397 0.1936 0.685 0.3218 -0.6006 -0.856 0.1192 0.1765
000050 75 b5 2a 36 17 34 67 37 60 35 27 36 6c 30 3c 2f
       -0.341 0.3853 0.2556 0.4626 0.336 0.3845 0.1382 0.11304
000060 31 34 fd 2d b8 ac 81 ad 9d 2e 94 b2 f6 34 92 36
       0.262 0.09357 -0.0737 -0.086 0.10333 -0.2056 0.31 0.4106
000070 5d a0 d2 38 52 ac bd 3b 15 35 d0 35 e0 35 08 ae
       -0.00852 0.6025 -0.0675 0.9673 0.3176 0.3633 0.3672 -0.09424

model/tf.math.add_6/Add/y f2 [64]
000000 5b 2f b9 ad 4f ad 9f 32 48 31 2f 24 8f 30 1f 30
       0.1149 -0.0894 -0.08295 0.2069 0.165 0.01634 0.1425 0.1288
000010 29 35 94 32 6b 38 ce bb 12 a4 f8 a3 95 31 2c 2c
       0.3225 0.2056 0.5522 -0.9756 -0.0159 -0.015564 0.1744 0.0652
000020 04 3a ce 39 3d 2e de 34 ee a7 bd 29 e3 af b2 2e
       0.752 0.7256 0.0975 0.3042 -0.03098 0.04483 -0.1232 0.1046
000030 6d ae e3 a4 57 37 ec aa 94 25 da 31 41 a7 82 28
       -0.1004 -0.01909 0.4587 -0.05408 0.02179 0.1829 -0.02834 0.03522
000040 6a 30 3a a3 94 36 74 31 d6 2a 04 2f a3 23 15 b3
       0.138 -0.014114 0.4111 0.1704 0.0534 0.1096 0.014915 -0.2213
000050 e6 35 5a b7 ee 33 f2 ad f2 37 ee 30 67 aa 42 2d
       0.3687 -0.4595 0.2478 -0.0929 0.4966 0.154 -0.05002 0.08215
000060 d5 ac e0 24 8b aa b8 29 62 2c 4b ac 53 38 22 35
       -0.0755 0.01904 -0.05112 0.04468 0.0685 -0.0671 0.5405 0.3208
000070 cb 31 a4 9d 7a 36 85 b8 ec b8 65 31 b3 ad 5d a6
       0.181 -0.00551 0.4048 -0.565 -0.615 0.1686 -0.08905 -0.02486

model/tf.math.add_40/Add/y f2 [64]
000000 37 39 4b 34 7c b3 e1 3c bd b0 fa ac 85 a9 e6 a3
       0.652 0.2683 -0.2339 1.22 -0.1481 -0.07776 -0.04312 -0.01543
000010 e0 ad 13 3f 22 ae 12 9c 22 35 4b 19 7e b2 ec ba
       -0.0918 1.769 -0.0958 -0.003975 0.3208 0.002584 -0.2029 -0.865
000020 14 3a 2d 32 17 39 33 38 b1 35 6f 37 92 a6 64 37
       0.76 0.193 0.636 0.525 0.3557 0.4646 -0.02567 0.462
000030 a8 33 a5 3b 78 34 5b b5 3a 3e 59 3b 99 36 47 2b
       0.2393 0.9556 0.2793 -0.3347 1.557 0.9185 0.4124 0.05685
000040 73 a4 5e 3b b1 af 61 3c 74 ab 09 30 c6 24 2e 39
       -0.01738 0.921 -0.1202 1.095 -0.05823 0.1261 0.01865 0.6475
000050 b1 30 fe 30 9a 3b 9b ac db 30 2a 2a 46 3c fb b8
       0.1466 0.156 0.95 -0.07196 0.1517 0.04816 1.068 -0.6226
000060 39 3b 2e b0 cb 3d 9c 40 b9 2d 79 39 29 af e3 31
       0.903 -0.1306 1.448 2.305 0.0894 0.684 -0.1119 0.184
000070 38 3e f3 36 87 3f 9e b8 1b 3d 07 2e 1a 34 02 3b
       1.555 0.4343 1.882 -0.577 1.276 0.0942 0.2563 0.876

model/tf.math.add_4/Add/y f2 [16]
000000 8a 39 80 39 97 3d cd 34 04 34 e3 34 3c 39 8d 3a
       0.6924 0.6875 1.397 0.3 0.251 0.3054 0.6543 0.819
000010 41 3a cc 3f b3 37 ec 37 63 3b bc ba dd 35 53 38
       0.7817 1.949 0.4812 0.495 0.9233 -0.842 0.3665 0.5405

model/tf.math.add_38/Add/y f2 [64]
000000 8f 29 6d 33 bb 2a 76 2f b8 32 ef 32 10 33 32 36
       0.04343 0.232 0.05258 0.1166 0.21 0.2167 0.2207 0.3872
000010 12 35 4c 37 10 b0 3e 2b d5 ad d3 ad c1 2a 03 30
       0.317 0.456 -0.127 0.05658 -0.0911 -0.091 0.05276 0.1254
000020 3b 2a b6 27 f7 a7 e0 b0 9c bc cb a9 71 ae 04 34
       0.04868 0.03012 -0.03111 -0.1523 -1.152 -0.04526 -0.10065 0.251
000030 80 28 7b 27 97 35 7a 2d ff 2e db 2a 93 35 f1 24
       0.03516 0.02922 0.3494 0.0856 0.1093 0.05356 0.3484 0.0193
000040 b0 31 a8 a8 29 32 7a 35 15 2b 28 a5 31 30 2e 28
       0.1777 -0.03638 0.1925 0.3423 0.05533 -0.02014 0.131 0.03265
000050 cc 35 27 a1 04 29 65 30 74 31 9e 2d 74 af 1d 1c
       0.3623 -0.01006 0.03918 0.1373 0.1704 0.08777 -0.11646 0.004017
000060 74 2c a2 30 13 33 c7 a7 51 2e fa 2c 94 34 0b 31
       0.0696 0.1448 0.2211 -0.03038 0.0987 0.07776 0.2861 0.1576
000070 d1 27 8e 30 0c 23 86 ac ba 27 48 31 ea 30 ff 25
       0.03053 0.1423 0.01376 -0.0707 0.03018 0.165 0.1536 0.02342

model/tf.math.add_36/Add/y f2 [64]
000000 a3 30 47 ad 3b 31 da 9f 91 b4 60 25 fb 2c a3 2c
       0.1449 -0.08246 0.1635 -0.007668 -0.2854 0.021 0.0778 0.07245
000010 04 b1 b0 af c1 2b b5 30 15 b2 ed 2e 86 39 c3 ad
       -0.1567 -0.1201 0.06058 0.1471 -0.1901 0.1082 0.6904 -0.09
000020 9f 20 3f 23 0d ab 59 26 31 ac df ac 2f aa 8c ad
       0.009026 0.01415 -0.05508 0.0248 -0.0655 -0.0761 -0.0483 -0.0867
000030 64 ad de b6 6d a8 52 2d b3 b0 f5 a6 b8 ae 32 a9
       -0.0842 -0.4292 -0.03458 0.0831 -0.1469 -0.02718 -0.105 -0.0406
000040 d1 31 0d 30 13 a8 1a ac c1 ae 0c 2d 6e 36 d1 20
       0.1818 0.1266 -0.03183 -0.0641 -0.1055 0.07886 0.4019 0.00941
000050 8a a4 fa b2 c5 a4 56 a0 77 ad 4f 2b 10 2f c6 a9
       -0.01773 -0.218 -0.01863 -0.00847 -0.0854 0.0571 0.11035 -0.0451
000060 d3 b7 6e 2a 29 ad 73 29 93 ab b5 2f fd a5 50 a8
       -0.489 0.05023 -0.0806 0.04257 -0.05917 0.1204 -0.02339 -0.0337
000070 5d 2f 49 98 63 2c a2 31 6e 30 c3 28 2d b0 a2 24
       0.11505 -0.002092 0.06854 0.176 0.1384 0.0372 -0.1305 0.0181

model/tf.math.add_32/Add/y f2 [64]
000000 7a 34 16 40 77 3c 9f 34 e0 38 52 3a 1b 40 37 b1
       0.2798 2.043 1.116 0.2888 0.6094 0.79 2.053 -0.163
000010 d9 31 32 3d 0d 2b a0 32 15 32 b8 32 0d 3c bd 39
       0.1827 1.299 0.05508 0.207 0.1901 0.21 1.013 0.7173
000020 32 b9 86 aa f0 3c e4 b2 81 38 e8 a7 9f 3c 26 b8
       -0.6494 -0.05096 1.234 -0.2153 0.563 -0.03088 1.155 -0.5186
000030 e1 b5 2e ad b8 3e f3 36 03 35 5c 40 37 3e f0 a6
       -0.3674 -0.08093 1.68 0.4343 0.3132 2.18 1.554 -0.0271
000040 45 3f 8c 29 06 ae 93 ac ec 9d 0d 3c 2b 31 2b 24
       1.817 0.04333 -0.0941 -0.0715 -0.005783 1.013 0.1615 0.01628
000050 52 a8 7f 42 a6 af 40 34 1c 34 44 38 72 35 f4 b1
       -0.03375 3.248 -0.1195 0.2656 0.2568 0.533 0.3403 -0.186
000060 07 34 0e 32 07 ae 1d 35 69 3c 1c 34 7e 33 23 35
       0.2517 0.1892 -0.0942 0.3196 1.103 0.2568 0.2341 0.321
000070 5f ae ce 9a d5 35 82 3e b6 b0 39 3f 52 b9 9a b2
       -0.09955 -0.003323 0.3645 1.627 -0.1472 1.806 -0.665 -0.2063

model/tf.math.add_30/Add/y f2 [64]
000000 02 ac d7 32 3e 34 67 ae d1 31 fa 32 20 a8 68 a1
       -0.0626 0.2137 0.2651 -0.10004 0.1818 0.218 -0.03223 -0.01056
000010 74 9d 0a 2d 62 ae 35 a9 28 35 4e b6 0a a9 2b 35
       -0.005325 0.07874 -0.09973 -0.04068 0.3223 -0.394 -0.03937 0.323
000020 cc 31 1d 31 8b 30 f8 ad e5 1f d4 31 34 35 2b b8
       0.1812 0.1598 0.142 -0.09326 0.00771 0.1821 0.3252 -0.521
000030 61 2c 6f 2f 29 b4 74 a6 fb b6 9f b6 97 33 62 a5
       0.0684 0.11615 -0.26 -0.0252 -0.4363 -0.4138 0.2372 -0.02103
000040 11 2d a8 31 f3 28 c2 2a ef 31 91 1d 2b 38 2a 25
       0.07916 0.1768 0.03867 0.0528 0.1854 0.005436 0.521 0.02017
000050 b6 21 57 2e 89 30 31 33 f5 20 4e 11 94 34 53 b7
       0.011154 0.09906 0.1417 0.2247 0.00968 0.0006475 0.2861 -0.4578
000060 6d 38 bc b4 0d 29 88 ac 6a 34 64 32 1c a7 1e 33
       0.553 -0.296 0.03946 -0.0708 0.276 0.1997 -0.02777 0.2224
000070 41 2d 0b b6 3a 9e 1b b3 a4 a8 3a 9d 05 a0 54 30
       0.0821 -0.3777 -0.00608 -0.222 -0.03625 -0.005104 -0.00785 0.1353

model/tf.math.add_28/Add/y f2 [64]
000000 61 ac 3d 31 e4 31 db af f8 b4 52 b9 13 ae 39 2a
       -0.0684 0.1637 0.1841 -0.12274 -0.3105 -0.665 -0.0949 0.0486
000010 27 29 4b 32 78 1b 16 9f 18 30 22 b0 6c 2a 8b b0
       0.04025 0.1967 0.003647 -0.00692 0.1279 -0.1292 0.05017 -0.142
000020 18 30 2f 2f 06 20 3d b8 09 26 d2 2a fc 26 fc 29
       0.1279 0.11224 0.00786 -0.53 0.02357 0.05328 0.02728 0.04675
000030 f3 27 37 b4 9e a5 94 a6 1e 30 f5 2c 03 b1 cf ad
       0.03105 -0.2634 -0.02194 -0.0257 0.1287 0.07745 -0.1566 -0.09076
000040 2b ac f2 32 19 b7 d3 2e bd b1 40 a5 55 ac b2 32
       -0.0651 0.217 -0.4436 0.1066 -0.1793 -0.02051 -0.0677 0.2092
000050 59 34 21 2e a5 2e 56 ae 7d af 21 ad 34 a0 80 31
       0.2717 0.09576 0.1038 -0.099 -0.117 -0.08014 -0.00821 0.1719
000060 e3 2d 7f 25 7f 2f 95 34 de ae d9 af a2 2a 74 21
       0.092 0.02147 0.1171 0.2864 -0.1073 -0.1226 0.05182 0.01065
000070 ae ab fb 32 35 af b4 27 8b 1f f9 19 12 2c 91 aa
       -0.06 0.2181 -0.1126 0.03009 0.007366 0.002916 0.0636 -0.0513

model/tf.math.add_24/Add/y f2 [64]
000000 43 b5 64 34 3f 3e 3a 37 48 37 8c 38 8d 38 e1 b7
       -0.3289 0.2744 1.562 0.4517 0.455 0.5684 0.569 -0.4924
000010 ec 38 65 b3 7d 41 f6 3e 44 3d db b6 ef 38 bb 3f
       0.615 -0.2311 2.744 1.74 1.316 -0.4285 0.6167 1.933
000020 9c a0 4a bd 2f 39 23 39 fc b1 28 24 03 3c fb 29
       -0.009 -1.322 0.648 0.642 -0.187 0.01624 1.003 0.04672
000030 1b b7 73 3e 0d 3f 72 33 6c 3b 38 44 14 39 2e 3e
       -0.444 1.612 1.763 0.2327 0.9277 4.22 0.635 1.545
000040 5d 3a 98 3b 5d 42 d0 ba 72 38 1d 2f 92 ab 4b 3f
       0.7954 0.949 3.182 -0.8516 0.5557 0.11115 -0.05914 1.823
000050 25 42 64 41 82 ae a6 a8 69 ac e9 39 b7 35 96 39
       3.072 2.695 -0.1017 -0.03632 -0.0689 0.739 0.3572 0.698
000060 72 3f 85 36 94 3e 2b 35 fd 3e 0e 99 ff bd 0b 3e
       1.861 0.4075 1.645 0.323 1.747 -0.002468 -1.499 1.511
000070 c5 3f 31 3a ae 37 70 40 65 ad 8d 39 b2 35 a9 b5
       1.942 0.774 0.48 2.219 -0.0843 0.694 0.356 -0.3538

model/tf.math.add_22/Add/y f2 [64]
000000 1a 23 66 2b f7 20 a7 32 ad 2f 1a 38 80 a7 2c 38
       0.01387 0.0578 0.0097 0.2079 0.11993 0.5127 -0.0293 0.5215
000010 2d ac f8 23 95 2f 56 b7 b6 2c 78 34 61 31 c2 af
       -0.06525 0.015564 0.11847 -0.4585 0.0736 0.2793 0.1681 -0.1212
000020 d8 b5 4c 32 dc 38 b4 35 a5 29 ac 2e 3b 36 43 ae
       -0.3652 0.1968 0.6074 0.3564 0.0441 0.10425 0.3894 -0.09784
000030 3b 38 6d 29 86 b2 1a 34 6a a7 8d b5 01 32 6f a8
       0.529 0.0424 -0.2039 0.2563 -0.02896 -0.347 0.1876 -0.03464
000040 fd 2a b9 35 9a 25 26 ac a6 b7 4a af 29 29 a6 2f
       0.0546 0.3577 0.02188 -0.0648 -0.478 -0.1139 0.0403 0.1195
000050 89 36 71 37 03 a0 11 2c 0d b9 43 35 61 2f b7 b1
       0.4084 0.465 -0.007835 0.06354 -0.6313 0.3289 0.1153 -0.1786
000060 34 ac 54 32 c0 2d fe 33 63 b0 de a6 1f ab 7f a3
       -0.0657 0.1978 0.08984 0.2498 -0.1371 -0.02682 -0.05563 -0.01464
000070 65 28 54 18 62 38 46 a0 04 34 08 a1 91 35 f3 ad
       0.03433 0.002113 0.548 -0.00835 0.251 -0.00983 0.348 -0.09296

model/tf.math.add_20/Add/y f2 [64]
000000 3c b0 9f b7 52 30 cd 35 eb 25 2d ad 2e b5 69 a0
       -0.1323 -0.4763 0.135 0.3625 0.02312 -0.0809 -0.3237 -0.00861
000010 9b b2 c7 36 ee b0 e9 98 8f 30 34 ba 38 30 7b 32
       -0.2064 0.4236 -0.154 -0.002398 0.1425 -0.7754 0.1318 0.2025
000020 eb 35 8a 2d 38 a5 5d 32 fb 30 f4 bf 26 ab e4 17
       0.3699 0.08655 -0.02039 0.1989 0.1556 -1.988 -0.05585 0.001926
000030 34 31 ef a1 48 b6 88 33 a3 25 dc 2d 01 a9 ea ad
       0.1626 -0.01159 -0.3926 0.2354 0.02202 0.09155 -0.0391 -0.0924
000040 25 ae 4b 34 74 ad b4 2c 50 30 c6 2c d2 96 2a 34
       -0.096 0.2683 -0.0852 0.0735 0.1348 0.0746 -0.001665 0.2603
000050 0b 34 4e 35 ce 28 b2 34 b4 b1 8a ad be 9a c0 32
       0.2527 0.3315 0.03754 0.2935 -0.1782 -0.08655 -0.003292 0.2109
000060 5b b6 dd 26 af a0 6b 36 70 2c d8 b9 20 20 bd af
       -0.3972 0.02681 -0.00915 0.4011 0.06934 -0.7305 0.00806 -0.1209
000070 3e 34 42 2e 56 33 c0 2f 11 28 b0 b0 4c b2 d5 30
       0.2651 0.0978 0.2292 0.1211 0.03177 -0.1465 -0.1968 0.151

model/tf.math.add_2/Add/y f2 [16]
000000 28 a6 a6 a4 13 a8 f0 bc 0a a8 78 39 88 b1 1d ab
       -0.02405 -0.01816 -0.03183 -1.234 -0.03156 0.6836 -0.1729 -0.05557
000010 fe 34 c6 a7 17 38 3c 2d 42 33 eb 33 9a a5 95 37
       0.312 -0.03036 0.511 0.0818 0.2268 0.2474 -0.02188 0.4739

model/tf.math.add_16/Add/y f2 [64]
000000 49 36 94 31 cc 3d 9d bc 76 3a 92 3f 8d b4 26 34
       0.3928 0.1743 1.449 -1.153 0.8076 1.893 -0.2844 0.2593
000010 55 3b 71 3f 76 b9 49 38 17 3c ff 43 6a b2 9e 3f
       0.9165 1.86 -0.6826 0.5356 1.022 3.998 -0.2004 1.904
000020 e3 34 64 b7 89 b8 14 ba 5c 9a 6c 37 76 3d 43 b6
       0.3054 -0.462 -0.567 -0.76 -0.003105 0.4639 1.365 -0.3914
000030 54 34 c6 b0 32 3d c6 3c 1b 40 99 b5 ff 3c 65 3b
       0.2705 -0.1492 1.299 1.193 2.053 -0.3499 1.249 0.9243
000040 68 3a 47 41 cf 3a d5 35 9b 3b ed 32 a4 40 99 3c
       0.801 2.639 0.851 0.3645 0.9507 0.2164 2.32 1.149
000050 01 38 16 41 14 3c 51 3c b9 33 11 40 65 3c e6 41
       0.5005 2.543 1.02 1.079 0.2413 2.033 1.099 2.95
000060 06 b9 3b 3e aa bc 52 b6 f9 3e af ba 11 3c 14 35
       -0.628 1.558 -1.166 -0.395 1.743 -0.8354 1.017 0.3174
000070 69 3d 25 3d c6 3a d2 39 88 3c 6c 42 44 3a ae 3a
       1.353 1.286 0.8467 0.7275 1.133 3.21 0.783 0.835

model/tf.math.add_14/Add/y f2 [64]
000000 ef 2a 8c 39 70 37 8d 37 70 a7 15 36 0e 35 c4 30
       0.05417 0.6934 0.4648 0.472 -0.02905 0.3801 0.316 0.1489
000010 de 2c f9 ae 55 33 a6 b7 d6 25 35 a8 89 b0 16 b5
       0.07605 -0.10895 0.2291 -0.478 0.0228 -0.03287 -0.1417 -0.3179
000020 0b 30 0c 38 ae b1 63 2d d7 af b2 30 31 38 e0 36
       0.1263 0.506 -0.1775 0.08417 -0.1225 0.1467 0.524 0.4297
000030 20 b8 27 37 cc 39 b1 33 73 2c 7c 32 2f ac f3 24
       -0.5156 0.447 0.7246 0.2404 0.0695 0.2026 -0.06537 0.01933
000040 a6 ae cb 30 d6 28 a7 35 52 34 a4 1d 34 34 97 a9
       -0.1039 0.1498 0.03778 0.3533 0.27 0.00551 0.2627 -0.04367
000050 ba 2d ec 31 3c 2f 09 35 a9 39 a3 31 61 30 fa 2a
       0.0895 0.185 0.11304 0.3147 0.7075 0.1761 0.1368 0.0545
000060 6f 35 12 c3 9c 3c 56 b4 27 b8 18 b9 b3 af c1 36
       0.3396 -3.535 1.152 -0.271 -0.519 -0.6367 -0.1203 0.422
000070 62 b0 d4 b4 3e bf 6b 32 7f 32 a0 2f 12 37 d1 35
       -0.137 -0.3018 -1.811 0.2006 0.203 0.11914 0.442 0.3635

model/tf.math.add_12/Add/y f2 [64]
000000 1f 35 7f 33 fb 32 02 b4 f1 b3 83 b7 90 3b 00 35
       0.32 0.2343 0.2181 -0.2505 -0.2482 -0.4695 0.9453 0.3125
000010 8b 31 0f 37 69 35 b1 b4 f7 28 1e 31 26 b7 4d 2c
       0.1732 0.4412 0.3381 -0.2932 0.0388 0.1599 -0.4468 0.0672
000020 95 b2 16 2f c4 33 89 be fa b2 bb 30 4a a9 26 32
       -0.2057 0.1107 0.2427 -1.634 -0.218 0.1478 -0.04132 0.1921
000030 d8 33 ec 2e 91 b3 9a a5 7e 2d 39 37 19 34 12 33
       0.2451 0.10815 -0.2365 -0.02188 0.0858 0.4514 0.256 0.221
000040 bd 3c 8f b0 6f b5 cb 2f e8 37 5a b4 8b af 30 3a
       1.185 -0.1425 -0.3396 0.12177 0.4941 -0.272 -0.11786 0.7734
000050 05 b5 90 24 29 b2 7c 33 be 34 c9 ad 9e b6 1b 2d
       -0.3137 0.01782 -0.1925 0.2339 0.2964 -0.0904 -0.4136 0.0798
000060 3d 30 08 a5 ad b6 f3 b4 8b 30 87 b5 00 b3 2b b1
       0.1324 -0.01965 -0.4172 -0.3093 0.142 -0.3455 -0.2188 -0.1615
000070 56 2f eb 31 9a 2f a6 31 2c af 99 af 90 a4 5e 30
       0.1146 0.1849 0.1188 0.1765 -0.11206 -0.1187 -0.01782 0.1365

model/tf.math.add_10/Add/y f2 [64]
000000 c7 30 91 1a be ad ef 39 f3 33 b2 b3 b1 36 48 b9
       0.1493 0.003206 -0.0897 0.7417 0.2484 -0.2405 0.4182 -0.66
000010 be 38 6d 35 a7 b4 96 b0 f6 b0 c8 25 45 30 b6 34
       0.593 0.339 -0.2908 -0.1433 -0.155 0.02258 0.1334 0.2944
000020 3f 35 b2 b2 47 ba ee 3a d6 26 cb b2 f0 30 4f 34
       0.328 -0.2092 -0.7847 0.866 0.0267 -0.2123 0.1543 0.2693
000030 3d 35 ea 35 20 b0 00 ba f6 b3 2e b4 48 38 21 1c
       0.3274 0.3696 -0.1289 -0.75 -0.2488 -0.2612 0.535 0.004032
000040 27 b0 39 32 72 a7 fe b5 3c 30 3d a9 52 2d 41 99
       -0.1298 0.1945 -0.02908 -0.3745 0.1323 -0.04092 0.0831 -0.002565
000050 ea 2c 2c a6 f2 94 df 33 e4 b5 80 30 c7 b2 3f 3b
       0.0768 -0.02411 -0.001207 0.246 -0.3682 0.1406 -0.2118 0.906
000060 79 ae 18 2c c6 ac 34 b6 b4 b7 fe 30 54 b8 11 b1
       -0.10114 0.06396 -0.0746 -0.3877 -0.4814 0.156 -0.541 -0.1583
000070 4d 35 8a ae 33 33 cc 2f 39 33 c3 29 a3 31 a7 ae
       0.3313 -0.1022 0.225 0.1218 0.2257 0.045 0.1761 -0.10394

model/tf.math.add/Add/y f2 [16]
000000 11 b6 d8 39 5a 2d 07 34 91 35 99 b7 32 be e1 34
       -0.3792 0.7305 0.0836 0.2517 0.348 -0.4749 -1.549 0.305
000010 1f 32 32 34 2f b6 62 34 ca 33 f8 2c f7 33 d8 a3
       0.1913 0.2622 -0.3865 0.274 0.2434 0.07764 0.2489 -0.01532

model/conv2d/Conv2D f2 [16, 3, 3, 3]
000000 46 81 32 12 e6 15 40 12 5d 96 57 87 30 10 f8 99
       -1.943e-05 0.0007563 0.00144 0.000763 -0.001554 -0.000112 0.000511 -0.002914
000010 c0 0c 62 18 08 1d 1b 18 e6 90 17 97 10 9a f0 96
       0.00029 0.00214 0.004913 0.002005 -0.000598 -0.001731 -0.00296 -0.001694
000020 16 9c 5f 99 f7 15 5c 1f 47 19 e6 8c d3 12 d1 94
       -0.00399 -0.002623 0.001456 0.007187 0.002577 -0.000299 0.000833 -0.001176
000030 dc 96 54 98 28 92 e7 00 ac 8e 1d 8d 4d 04 f3 95
       -0.001675 -0.002113 -0.0007515 1.377e-05 -0.0004072 -0.000312 6.56e-05 -0.001452
000040 e8 8d 7f 10 ad 8b 9b 8a 76 09 90 90 7f 0c ac 95
       -0.0003605 0.000549 -0.0002342 -0.0002016 0.0001667 -0.000557 0.0002744 -0.001385
000050 c9 9a 7c 92 d2 8c e5 95 16 82 b7 8a 56 93 3f 02
       -0.003313 -0.0007915 -0.0002942 -0.001439 -3.18e-05 -0.0002049 -0.0008955 3.43e-05
000060 80 09 62 94 02 17 8d 89 95 94 4c 14 d2 0d 55 95
       0.0001678 -0.00107 0.001711 -0.0001694 -0.001119 0.001049 0.0003552 -0.001302
000070 5e 10 60 82 e1 95 e8 16 91 11 56 93 47 0a 6f 8b
       0.000533 -3.624e-05 -0.001435 0.001686 0.0006795 -0.0008955 0.0001916 -0.0002269
000080 f1 94 48 17 1d 91 69 96 c3 19 2d 08 ea 94 d5 15
       -0.001206 0.001778 -0.000624 -0.001565 0.002813 0.0001274 -0.0012 0.001424
000090 a9 81 b5 92 8c 11 35 8f 30 96 26 14 48 11 05 94
       -2.533e-05 -0.0008187 0.000677 -0.00044 -0.001511 0.001013 0.0006447 -0.000981
0000a0 3f 0c 39 0e f8 14 b0 18 e0 17 5a 1c 8d 1d 3c 10
       0.0002592 0.0003798 0.001213 0.002289 0.001923 0.00425 0.00542 0.000517
0000b0 48 19 05 1a cb 88 6a 98 50 92 3a 9a f3 9d 26 9c
       0.002579 0.00294 -0.0001463 -0.002155 -0.0007706 -0.00304 -0.00581 -0.00405
0000c0 16 8f 0c 99 33 98 1c 84 f3 0c 30 90 22 0d 4d 94
       -0.0004325 -0.002464 -0.00205 -6.27e-05 0.000302 -0.000511 0.0003133 -0.00105
0000d0 48 91 6c 14 c1 12 49 90 28 88 03 98 64 0e b9 0e
       -0.0006447 0.00108 0.0008245 -0.000523 -0.0001268 -0.001959 0.00039 0.0004103
0000e0 36 96 66 0f 80 85 39 90 9a 0d f1 8f e3 98 93 88
       -0.001516 0.0004516 -8.39e-05 -0.0005155 0.000342 -0.0004847 -0.002386 -0.0001396
0000f0 72 8a fb 97 85 8a 52 01 3d 88 df 0c 19 11 80 90
       -0.0001967 -0.001948 -0.000199 2.015e-05 -0.0001293 0.0002973 0.0006223 -0.0005493
000100 07 90 cb 88 d8 92 05 95 3b 04 63 10 e5 8f 81 88
       -0.0004916 -0.0001463 -0.0008354 -0.001225 6.455e-05 0.0005355 -0.0004818 -0.0001374
000110 50 10 5b 8d 5a 01 9c 14 1d 11 61 82 3b 11 5e 86
       0.0005264 -0.0003269 2.06e-05 0.001125 0.000624 -3.63e-05 0.0006385 -9.716e-05
000120 7a 03 f4 0f 93 10 eb 09 19 14 72 15 1b 0a 02 10
       5.305e-05 0.0004854 0.0005584 0.0001806 0.001 0.001329 0.0001863 0.000489
000130 6c 0f 17 12 9d 11 73 90 2b 88 76 05 59 94 bc 0f
       0.000453 0.0007434 0.000685 -0.000543 -0.0001272 8.33e-05 -0.001061 0.000472
000140 31 0c a2 94 b7 94 48 0a 44 12 90 12 bc 18 54 10
       0.0002558 -0.001131 -0.001151 0.0001917 0.000765 0.000801 0.002312 0.0005283
000150 1c 94 28 14 99 14 cb 8b e8 86 5b 8d 7f 15 3b 17
       -0.001003 0.001015 0.001122 -0.0002378 -0.0001054 -0.0003269 0.001342 0.001765
000160 fa 91 d4 92 1f 0f 10 84 50 90 3f 8d 3f 16 07 8c
       -0.0007296 -0.0008335 0.0004346 -6.2e-05 -0.0005264 -0.0003202 0.001525 -0.0002458
000170 ee 84 4b 07 f9 93 26 0c b0 18 bd 92 18 13 57 92
       -7.52e-05 0.0001113 -0.000973 0.0002532 0.002289 -0.0008225 0.000866 -0.000774
000180 c6 07 24 17 b0 93 e4 92 1f 14 f9 93 52 0f d9 14
       0.0001186 0.001743 -0.0009384 -0.000841 0.001006 -0.000973 0.0004468 0.0011835
000190 f8 95 bc 14 63 17 e0 96 67 0e 75 15 cd 95 51 11
       -0.001457 0.001156 0.001803 -0.001678 0.0003908 0.001332 -0.001416 0.000649
0001a0 6d 14 28 96 d8 0f 0b 13 c0 98 c5 0f db 14 61 95
       0.0010805 -0.001503 0.0004787 0.0008597 -0.00232 0.0004742 0.001185 -0.001313
0001b0 fa 90 bc 82 e4 03 98 94 49 95 9e 96 60 0a 43 18
       -0.0006075 -4.17e-05 5.937e-05 -0.0011215 -0.00129 -0.001616 0.0001945 0.00208
0001c0 ac 16 aa 95 f7 99 58 98 2e 96 e4 99 10 99 59 17
       0.001629 -0.001383 -0.002913 -0.002121 -0.001509 -0.002876 -0.002472 0.001794
0001d0 fe 1a 53 1b 02 17 8b 0e be 13 7b 0e 3e 94 b6 90
       0.003414 0.003576 0.001711 0.0003994 0.000945 0.0003955 -0.001036 -0.000575
0001e0 c9 10 ce 12 08 18 82 89 4a 13 e2 15 0a 92 8f 9b
       0.000584 0.0008307 0.001968 -0.0001681 0.00089 0.001436 -0.000737 -0.00369
0001f0 61 95 be 91 74 96 81 83 e7 16 20 1b b4 19 82 95
       -0.001313 -0.000701 -0.001575 -5.347e-05 0.001685 0.003479 0.002785 -0.001345

model/conv2d_1/Conv2D f2 [16, 1, 1, 16]
000000 9f 33 0c b4 e4 20 7b ad a3 ac 11 32 a9 23 ef 9f
       0.2382 -0.253 0.00955 -0.08563 -0.07245 0.1896 0.01496 -0.007748
000010 e1 92 78 b7 6a 26 98 af 57 b2 0f 34 db 2b b1 a1
       -0.0008397 -0.4668 0.02505 -0.11865 -0.1981 0.2537 0.06137 -0.011116
000020 09 29 7f a4 39 30 9d b3 12 b5 07 b5 68 28 ea ad
       0.03934 -0.01756 0.132 -0.2379 -0.317 -0.3142 0.03442 -0.0924
000030 be ad a0 ad b0 a6 d8 35 de ac 32 b6 69 30 56 2c
       -0.0897 -0.0879 -0.02612 0.3652 -0.07605 -0.3872 0.1378 0.06775
000040 4a 22 2f b6 33 28 a5 a8 0a b8 1e 33 b0 a8 08 a8
       0.01228 -0.3865 0.0328 -0.0363 -0.505 0.2224 -0.03662 -0.0315
000050 ef b3 2a b5 51 a7 54 ac 68 30 2f 31 d1 2a 3c a6
       -0.2479 -0.3228 -0.02858 -0.0676 0.1377 0.162 0.05325 -0.02435
000060 85 19 c6 36 74 34 0e 2f 3a 32 a3 ab 77 34 f1 39
       0.002695 0.4233 0.2783 0.1102 0.1946 -0.05966 0.279 0.7427
000070 58 2d 69 30 d0 a8 05 2b 51 25 3a 31 42 38 29 38
       0.0835 0.1378 -0.0376 0.05484 0.02077 0.1633 0.532 0.52
000080 65 2f f8 25 8e 2f cf 33 8b 32 ec 24 fc 32 da 2b
       0.11554 0.02332 0.11804 0.244 0.2045 0.01923 0.2183 0.06134
000090 ba 34 bd b2 cc b2 66 34 bc b1 af b0 8c a5 df ac
       0.2954 -0.2106 -0.2124 0.275 -0.1792 -0.1464 -0.02167 -0.0761
0000a0 48 37 8a b5 52 22 dd 34 f3 b2 b7 35 3d 25 27 2b
       0.455 -0.3462 0.012344 0.304 -0.2172 0.3572 0.02046 0.05588
0000b0 76 2c a9 a9 d2 b6 b0 36 37 b9 77 30 83 2d fd 2a
       0.0697 -0.04422 -0.4263 0.418 -0.652 0.1395 0.0861 0.0546
0000c0 22 ab 78 ae 5e b1 56 31 f7 ac b2 20 1d ae 47 2f
       -0.05573 -0.1011 -0.1677 0.1667 -0.0776 0.00917 -0.0955 0.1137
0000d0 38 b5 3c 34 44 b0 55 35 75 36 1c 33 19 24 48 29
       -0.3262 0.2646 -0.1333 0.3333 0.4036 0.2222 0.016 0.04126
0000e0 34 37 13 a0 6b 2a 38 35 96 2c 75 26 64 30 2c ad
       0.4502 -0.00796 0.05014 0.3262 0.07166 0.02522 0.1372 -0.0808
0000f0 a8 28 93 b4 45 b5 a1 35 3d b7 1a af 58 ac b1 ac
       0.03638 -0.286 -0.3293 0.3518 -0.4524 -0.11096 -0.0679 -0.0733
000100 6a 30 66 ac 24 a8 12 36 87 a1 a8 a9 70 22 e9 2c
       0.138 -0.0687 -0.03235 0.3794 -0.010796 -0.0442 0.01257 0.0767
000110 09 99 cc ae 21 b8 7b 36 f1 a5 15 ab 09 21 29 22
       -0.002459 -0.1062 -0.516 0.405 -0.02321 -0.05533 0.009834 0.01203
000120 92 b3 9b af 8f ab 98 34 46 b3 40 2a bb 9d 97 20
       -0.2366 -0.11884 -0.05905 0.287 -0.2273 0.04883 -0.005596 0.008965
000130 c6 b0 33 30 ea b6 ef 35 92 33 3e a8 41 a5 95 9c
       -0.1492 0.1312 -0.4321 0.3708 0.2366 -0.03314 -0.02052 -0.004475
000140 da b4 1c b8 13 33 6b 8a 26 b4 0c 39 aa 30 a7 af
       -0.3032 -0.5137 0.2211 -0.0001959 -0.2593 0.631 0.1458 -0.11957
000150 21 af 3d 32 df 9c 34 ad 78 33 86 30 a8 1f 39 2a
       -0.1114 0.195 -0.004757 -0.0813 0.2334 0.1414 0.007477 0.0486
000160 06 ac 36 b8 87 35 c1 25 0e b8 c6 38 e1 31 67 b2
       -0.06287 -0.5264 0.3455 0.02248 -0.507 0.5967 0.1837 -0.2001
000170 89 a7 3b 24 f9 23 10 ad df aa c7 ab 52 26 59 1d
       -0.02943 0.01653 0.01557 -0.0791 -0.05368 -0.06076 0.02469 0.005222
000180 20 9f 2b b3 47 b4 2b ad 48 a6 19 29 ba b8 41 b0
       -0.006958 -0.224 -0.2673 -0.08075 -0.02454 0.03983 -0.591 -0.1329
000190 b8 a6 a1 ae 42 2e dc 1e 6a 29 b5 aa 5a b9 0d 33
       -0.02625 -0.1036 0.0978 0.0067 0.0423 -0.0524 -0.669 0.2203
0001a0 1f aa ed b4 4b bb 07 25 d7 a8 a2 2d f6 b0 51 33
       -0.04782 -0.3079 -0.9116 0.01964 -0.0378 0.088 -0.155 0.2286
0001b0 11 9a 22 28 33 a4 e2 22 0d a9 d0 ab 95 32 dc b1
       -0.002962 0.0323 -0.0164 0.01344 -0.03946 -0.06104 0.2057 -0.1831
0001c0 14 b4 8b 2e b5 2c cb 36 f7 a6 e5 ad e9 31 b1 22
       -0.255 0.10223 0.07355 0.4246 -0.0272 -0.0921 0.1847 0.01307
0001d0 42 b8 e3 a7 2d b5 82 36 b3 35 69 b2 da a9 3d a9
       -0.532 -0.0308 -0.3235 0.4067 0.3562 -0.2003 -0.04572 -0.04092
0001e0 61 29 07 2c c0 af 5a 38 e7 a6 87 29 75 ac a9 2c
       0.04202 0.0629 -0.1211 0.544 -0.02696 0.04318 -0.06964 0.0728
0001f0 24 1e 5f ad c1 ae d6 27 a1 2c 94 31 9a ab 11 2c
       0.005997 -0.0839 -0.1055 0.03061 0.0723 0.1743 -0.0594 0.06354

model/depthwise_conv2d/depthwise f2 [1, 3, 3, 16]
000000 23 b4 45 33 f3 2e d1 27 fc 35 53 ac 09 ac 02 35
       -0.2585 0.2272 0.1086 0.03053 0.374 -0.06757 -0.06305 0.313
000010 cb b8 45 35 6e a9 87 b9 b6 26 c0 af c7 aa f7 31
       -0.599 0.3293 -0.04242 -0.691 0.02621 -0.1211 -0.05295 0.1864
000020 c2 b8 84 3d b2 39 e1 38 69 b8 c6 b3 fa b7 c8 8c
       -0.5947 1.379 0.712 0.61 -0.5513 -0.2429 -0.4985 -0.0002918
000030 e1 bb 33 3a fa 30 8a bd 1d 34 d5 38 49 b6 07 3b
       -0.985 0.775 0.1555 -1.385 0.257 0.604 -0.3928 0.8784
000040 b2 39 cc 3a c8 bb 6d 30 bd b2 10 a5 13 ab 4e b1
       0.712 0.8496 -0.9727 0.1383 -0.2106 -0.01978 -0.05527 -0.1658
000050 cd bc 49 32 38 33 28 bc d5 2c 9b 31 3a 35 0c 39
       -1.2 0.1964 0.2256 -1.039 0.0755 0.1752 0.3267 0.631
000060 43 23 60 b7 f9 b4 17 2e cf b2 d6 ad 6c 33 e0 27
       0.01418 -0.461 -0.3108 0.09515 -0.2128 -0.0912 0.2319 0.03076
000070 35 aa dc 39 5b 2c db b3 c6 31 4a 2f 21 2c 14 b7
       -0.0485 0.7324 0.06805 -0.2455 0.1804 0.1139 0.0645 -0.4424
000080 45 bd b7 bd 2f 40 b3 36 47 40 22 b5 e3 be 2c 3d
       -1.317 -1.429 2.092 0.4187 2.139 -0.3208 -1.722 1.293
000090 9f 27 41 1b 82 35 3a 39 04 36 c4 32 a2 3d aa bd
       0.02977 0.003542 0.3442 0.6533 0.376 0.2114 1.408 -1.416
0000a0 4f 3f 92 ba b5 bf b3 36 d9 be 70 b7 c6 38 b1 3b
       1.827 -0.8213 -1.927 0.4187 -1.712 -0.4648 0.5967 0.9614
0000b0 dc ad fe bc 87 34 ed 31 37 36 46 35 cf 31 1d bc
       -0.09155 -1.248 0.283 0.1852 0.3884 0.3296 0.1815 -1.028
0000c0 a8 b2 24 2a ae 33 73 2d c0 1f 22 ad d7 b1 31 b4
       -0.208 0.04797 0.24 0.08514 0.00757 -0.0802 -0.1825 -0.262
0000d0 f8 35 b9 b1 7a 25 88 38 5e 32 36 24 ee 2e 1c 29
       0.373 -0.1788 0.0214 0.5664 0.199 0.01645 0.1083 0.03992
0000e0 d0 b6 0f 28 a1 32 6d ad f0 35 2e b0 ff ac 3b bb
       -0.4258 0.0317 0.2072 -0.0848 0.371 -0.1306 -0.07806 -0.904
0000f0 69 37 73 bd fd 30 c0 3b d3 30 93 b0 fc b4 56 2f
       0.4631 -1.362 0.1559 0.9688 0.1508 -0.143 -0.3115 0.1146
000100 9c 31 a1 28 d4 b3 cd 25 4c 24 f7 b4 02 34 cb 31
       0.1753 0.03616 -0.2446 0.02266 0.01678 -0.3103 0.2505 0.181
000110 d8 36 77 b6 33 30 9f 3b ba 30 ca ab 62 21 e8 30
       0.4277 -0.404 0.1312 0.9526 0.1477 -0.06085 0.01051 0.1533

model/conv2d_2/Conv2D f2 [16, 1, 1, 16]
000000 88 a8 8c 2a 31 a7 24 ac 9a 2e d2 b4 8d a2 d9 34
       -0.0354 0.05115 -0.02809 -0.0647 0.10315 -0.3013 -0.012794 0.303
000010 9e 34 af 2b 85 b4 6d a4 ff 31 87 32 0d 36 00 b0
       0.2886 0.06003 -0.2825 -0.01729 0.1874 0.204 0.3782 -0.125
000020 f5 a3 3f 28 89 1f 08 30 72 1b e1 af 47 a9 d0 ad
       -0.01554 0.03317 0.00736 0.126 0.003635 -0.1231 -0.04123 -0.0908
000030 b1 33 0f b2 f0 aa e2 2d 95 a2 b1 3a 6a 29 a7 30
       0.2404 -0.1893 -0.0542 0.0919 -0.012856 0.8364 0.0423 0.1454
000040 6a a6 16 2a 82 a8 79 2a 1b 1e 06 33 2c 28 c7 25
       -0.02505 0.04755 -0.03522 0.05057 0.005962 0.2195 0.0326 0.02257
000050 68 2f 2c a8 22 34 2f 3c 0d 2d d6 2e ae ac 7e 27
       0.1157 -0.0326 0.2583 1.046 0.0789 0.1068 -0.0731 0.02927
000060 52 2c f5 2b 66 1d 49 a1 05 a3 64 32 62 21 46 2d
       0.0675 0.06216 0.005272 -0.01032 -0.01371 0.1997 0.01051 0.0824
000070 52 a4 68 2f eb b9 46 2d 9a aa 37 31 df 29 cf 25
       -0.01688 0.1157 -0.7397 0.0824 -0.05157 0.163 0.04587 0.02269
000080 17 ac 3c 34 e9 a1 37 a8 0a 2c b9 a8 02 1c 8c 32
       -0.0639 0.2646 -0.01154 -0.03293 0.0631 -0.0369 0.003914 0.2046
000090 e8 34 92 30 e3 33 83 2b 13 b4 84 b0 eb 31 d0 32
       0.3066 0.1428 0.2465 0.0587 -0.2546 -0.1411 0.1849 0.2129
0000a0 70 b2 3d a6 5d b0 59 a2 13 a8 5e b5 8d aa 94 ac
       -0.2012 -0.02437 -0.1364 -0.0124 -0.03183 -0.3354 -0.05118 -0.07153
0000b0 d6 af 9a b2 f4 37 1e aa 91 ae ad ac c8 aa 04 ad
       -0.12244 -0.2063 0.497 -0.0478 -0.1026 -0.07306 -0.05298 -0.07837
0000c0 83 a6 4b 2c d3 a4 11 34 61 28 b8 b0 d0 2c 9d 2a
       -0.02544 0.0671 -0.01884 0.2542 0.0342 -0.1475 0.0752 0.05167
0000d0 f8 32 ce 2a 9c 34 2f 34 e2 ae 2e 35 a9 2c 59 2d
       0.2178 0.05316 0.288 0.2615 -0.10754 0.3237 0.0728 0.08356
0000e0 e8 35 95 36 28 35 71 af 58 ad a0 b4 cf 36 a7 b1
       0.3691 0.4114 0.3223 -0.1163 -0.0835 -0.289 0.4255 -0.1766
0000f0 1c b0 da 34 04 b1 8e a2 09 aa ea b1 6d 37 ed 34
       -0.1284 0.3032 -0.1567 -0.0128 -0.04715 -0.1848 0.464 0.3079
000100 1c 1d e7 a9 dd 9e bb 3b 25 27 92 a1 c8 17 e5 25
       0.00499 -0.0461 -0.006702 0.9663 0.02791 -0.01088 0.0019 0.02303
000110 e4 b2 91 2e 66 20 2e a5 bf 38 5a 3a c0 9f fc ae
       -0.2153 0.1026 0.00859 -0.02023 0.5933 0.794 -0.00757 -0.10913
000120 84 ab 82 a5 35 b6 43 ac 62 b1 a9 b8 25 32 a2 31
       -0.05872 -0.02151 -0.388 -0.0666 -0.1682 -0.5825 0.192 0.176
000130 77 2c 3e 2c 2c b8 9b 31 4a ac c2 b1 1f b5 58 18
       0.06976 0.0663 -0.5215 0.1752 -0.067 -0.1799 -0.32 0.002121
000140 97 b1 1c b4 f3 af 17 23 c3 b9 9d b2 8f 35 f0 b9
       -0.1747 -0.2568 -0.1242 0.01385 -0.72 -0.2067 0.3474 -0.742
000150 cb ab 3d 38 16 a9 e4 26 83 2b 4b 2e 9e 38 39 b3
       -0.06088 0.53 -0.03973 0.02692 0.0587 0.0983 0.577 -0.2257
000160 64 25 3e 20 da 20 ca 1e c8 26 23 a9 4b 2f 16 28
       0.02106 0.008286 0.009476 0.00663 0.02649 -0.04013 0.11395 0.03192
000170 40 27 9f a9 6e 39 1c 9e c7 2d 18 32 6c 28 5d a3
       0.02832 -0.0439 0.6787 -0.005966 0.0903 0.1904 0.03455 -0.01438
000180 63 38 85 b5 77 38 72 28 e4 35 b6 32 a0 38 af b0
       0.5483 -0.345 0.558 0.03473 0.3682 0.2097 0.578 -0.1464
000190 c5 b3 ac 29 7a 32 91 b4 df 25 a3 2f 78 ac e6 b4
       -0.2428 0.0443 0.2024 -0.2854 0.02293 0.1193 -0.0698 -0.3062
0001a0 a5 27 c3 2b 51 2c 7c 28 5e 2f a5 3a 68 aa d5 2d
       0.02986 0.06064 0.06744 0.03503 0.1151 0.8306 -0.05005 0.0911
0001b0 4a a4 59 2c 35 36 24 32 dc a7 05 33 0a a6 87 a7
       -0.01675 0.06793 0.388 0.1919 -0.0307 0.2194 -0.02359 -0.0294
0001c0 b2 21 c5 25 32 22 ca 35 7c 22 fd a9 11 24 f8 27
       0.01112 0.02254 0.0121 0.3618 0.012665 -0.04678 0.01588 0.03113
0001d0 f4 a4 2a 9f 63 34 b8 21 28 ba e4 b5 01 2b 18 9d
       -0.01935 -0.006996 0.2742 0.01117 -0.7695 -0.3682 0.05472 -0.004974
0001e0 0d 36 7d b8 38 35 0e af 11 2f 57 2a 08 34 0d b3
       0.3782 -0.561 0.3262 -0.1102 0.1104 0.04953 0.252 -0.2203
0001f0 25 b5 e6 b1 6e 2f 09 b4 e9 9a 3f a4 05 b1 46 b8
       -0.3215 -0.1843 0.1161 -0.2522 -0.003374 -0.01659 -0.1569 -0.534

model/depthwise_conv2d_1/depthwise f2 [1, 3, 3, 16]
000000 00 b0 e8 b0 7e a8 bc 33 d4 b6 4c 32 1d 29 eb 22
       -0.125 -0.1533 -0.0351 0.2417 -0.4268 0.1968 0.03995 0.01351
000010 42 aa b9 29 7d ac af b1 10 a5 4d 2d 96 16 dd 26
       -0.0489 0.0447 -0.0701 -0.1776 -0.01978 0.0828 0.001608 0.02681
000020 b3 25 e1 36 60 2b 94 ac d5 2b 41 39 47 b7 db 2c
       0.02226 0.43 0.05762 -0.07153 0.0612 0.6567 -0.4548 0.07587
000030 67 30 37 30 4f af 35 bc b2 b0 15 b2 ee ba 37 28
       0.1376 0.1317 -0.1142 -1.052 -0.1467 -0.1901 -0.866 0.03293
000040 77 a8 10 ac a0 ad 67 b6 1f 33 2e 2c e1 a8 6b 2a
       -0.03488 -0.0635 -0.0879 -0.4001 0.2225 0.0653 -0.03812 0.05014
000050 50 aa 15 a9 b8 ab a2 a4 af a6 97 2d e8 31 7f 20
       -0.04932 -0.0397 -0.0603 -0.0181 -0.02611 0.08734 0.1846 0.00878
000060 ed ac ba 2f db 21 cd 37 c8 b8 93 a8 78 30 bd ac
       -0.07697 0.1207 0.01144 0.4875 -0.5977 -0.03574 0.1396 -0.07404
000070 e8 32 37 af c6 ab 6a ba 82 ab 91 b4 7b b5 99 a5
       0.2158 -0.11273 -0.06073 -0.802 -0.05865 -0.2854 -0.3425 -0.02187
000080 a7 bb 96 bc d9 bd 58 3c 2d 2a 6a 37 b2 bd 6e 3a
       -0.9565 -1.146 -1.462 1.086 0.04825 0.4634 -1.424 0.8037
000090 f3 bc 8c 3e 59 b9 61 39 1a bb c4 3d 09 b8 a6 3a
       -1.237 1.637 -0.6685 0.6724 -0.8877 1.441 -0.5044 0.831
0000a0 d8 2c 03 30 00 29 c6 ba 07 38 49 ae c1 34 c3 ae
       0.0757 0.1254 0.03906 -0.8467 0.5034 -0.0982 0.297 -0.10565
0000b0 90 33 68 1f 50 1a 9c a6 55 a9 40 b2 cd b1 11 ab
       0.2363 0.007233 0.003082 -0.02582 -0.04166 -0.1953 -0.1813 -0.0552
0000c0 2b a3 1e 2a 85 ae 9b 2b 4a b4 db b2 6e 30 53 25
       -0.014 0.0478 -0.10187 0.05942 -0.268 -0.2142 0.1384 0.0208
0000d0 9f 15 8f a8 a2 a1 75 31 12 a4 c4 2c 6a 33 5e 2c
       0.001372 -0.0356 -0.011 0.1705 -0.0159 0.07446 0.2317 0.06824
0000e0 b6 34 87 b3 f6 26 3c ab 21 2d 43 ba a4 3c 51 8f
       0.2944 -0.2352 0.02719 -0.05652 0.08014 -0.7827 1.16 -0.0004466
0000f0 a2 ab e9 2c 1c ad e6 3c 26 a4 07 ac 2b 3d 70 2f
       -0.05963 0.0767 -0.07983 1.225 -0.0162 -0.0629 1.292 0.1162
000100 0b ae cc 28 b9 ab 0d b5 5b 36 4b ae ae b1 64 26
       -0.0944 0.03748 -0.06033 -0.3157 0.3972 -0.0983 -0.1775 0.02496
000110 78 25 9e 1e 7a a8 6f 26 2e a9 27 2d b5 2e 30 2c
       0.02136 0.006462 -0.03497 0.02513 -0.04047 0.0805 0.1048 0.0654

model/conv2d_3/Conv2D f2 [64, 1, 1, 16]
000000 a3 27 b4 ab 9c ab 0d b2 8b a8 b7 26 12 2f 4a 31
       0.02983 -0.06018 -0.05945 -0.1891 -0.0355 0.02623 0.1105 0.1653
000010 bf 2e 31 a4 47 b5 4e ad 80 35 b6 af 64 15 0c ac
       0.1054 -0.01637 -0.3298 -0.0829 0.3438 -0.1205 0.001316 -0.06323
000020 b3 2e 08 ad 17 af 3f ac 6f a1 d1 b0 d2 2d 77 af
       0.1047 -0.0786 -0.1108 -0.06635 -0.01061 -0.1505 0.09094 -0.11664
000030 76 2c 24 aa 87 ab 6e a1 f2 ad fc 36 68 2a 03 2c
       0.0697 -0.04797 -0.0588 -0.010605 -0.0929 0.4365 0.05005 0.0627
000040 96 2a bd 1e 47 b4 b8 30 85 27 dd b2 ac 2c e6 2d
       0.05145 0.00658 -0.2673 0.1475 0.02937 -0.2145 0.073 0.09216
000050 79 ae f2 35 36 aa 0e 2a 63 b0 9a ac f3 9d 82 30
       -0.10114 0.3716 -0.04852 0.0473 -0.1371 -0.0719 -0.00581 0.1409
000060 35 a5 21 2e 48 9f b2 ac 95 2f d4 28 9f b2 22 2d
       -0.02034 0.09576 -0.00711 -0.07336 0.11847 0.03772 -0.2069 0.0802
000070 b0 19 71 2e be b5 72 32 28 b2 aa 26 68 28 5f 30
       0.002777 0.10065 -0.359 0.2014 -0.1924 0.02603 0.03442 0.1366
000080 c7 2c 21 a4 68 b5 ea 33 40 a9 15 b2 bf a8 dc b0
       0.07465 -0.01613 -0.338 0.2473 -0.04102 -0.1901 -0.03708 -0.1519
000090 c1 31 5c 31 34 30 a4 32 2f 30 16 b6 86 a0 bf b4
       0.1798 0.1675 0.1313 0.2075 0.1307 -0.3804 -0.008835 -0.2966
0000a0 6f 24 26 37 3f a7 43 a4 fd 27 9f 28 33 2d 63 1f
       0.01732 0.4468 -0.0283 -0.01665 0.0312 0.0361 0.08124 0.007214
0000b0 63 38 31 a5 3f 27 40 23 23 20 20 b1 28 ac 55 ad
       0.5483 -0.02028 0.0283 0.01416 0.00808 -0.1602 -0.06494 -0.0833
0000c0 44 a1 ad ad 1f 27 3d 2a 29 ae 85 b2 75 b0 41 23
       -0.010284 -0.0887 0.02782 0.04874 -0.09625 -0.2037 -0.1393 0.01417
0000d0 f9 b2 75 31 f4 b4 17 a7 a5 b2 2c 30 40 2f bb 32
       -0.2179 0.1705 -0.3096 -0.0277 -0.2076 0.1304 0.1133 0.2103
0000e0 e5 ad 6e 2a 0f 31 55 2a ea 29 04 2c 7f a9 ed 30
       -0.0921 0.05023 0.1581 0.04947 0.0462 0.06274 -0.04294 0.1539
0000f0 75 2a 22 aa 50 b9 25 31 2c 2a cd a1 ef 94 84 28
       0.05045 -0.0479 -0.664 0.1608 0.04822 -0.01133 -0.0012045 0.03528
000100 df 24 32 2f 3d 34 37 ac a0 b1 d5 28 a6 32 fa 32
       0.01903 0.1124 0.265 -0.06586 -0.1758 0.03775 0.2078 0.218
000110 a7 aa 25 a3 91 a1 f8 a9 cf b5 4d b3 17 af 7c 18
       -0.05197 -0.013954 -0.01087 -0.04663 -0.363 -0.2281 -0.1108 0.00219
000120 c0 9f e8 33 dc ad c2 a0 12 a8 78 32 ce 2f 0d b3
       -0.00757 0.2471 -0.09155 -0.00929 -0.0318 0.2021 0.12195 -0.2203
000130 56 2f a8 2b 75 b0 40 32 ad b2 01 28 8e 28 57 33
       0.1146 0.0598 -0.1393 0.1953 -0.2086 0.03128 0.03558 0.2294
000140 a6 29 78 a2 ce b3 29 35 47 1e 4b b0 d4 b1 73 30
       0.04413 -0.012634 -0.2439 0.3225 0.00613 -0.1342 -0.1821 0.139
000150 0d 9b 69 35 7c 94 77 38 ec ac c8 b2 ab 2d d2 29
       -0.003443 0.3381 -0.001095 0.558 -0.0769 -0.2119 0.08856 0.04547
000160 f3 28 7f a7 de ae d8 af 15 a3 dd 2a f8 34 c1 aa
       0.03867 -0.02928 -0.1073 -0.12256 -0.01383 0.05362 0.3105 -0.05276
000170 d7 2d e7 a6 3b ac 8b 39 0b a4 ae 2e a8 2b 1c ae
       0.09125 -0.02696 -0.0661 0.693 -0.0158 0.1044 0.0598 -0.09546
000180 28 8f 85 2d 67 b0 27 ac 3a ae d1 ac 0e 36 75 29
       -0.0004368 0.08624 -0.1376 -0.0649 -0.0973 -0.07526 0.3784 0.04263
000190 2c a4 ef ac 7e ad 7b b2 19 ae 7e 29 2e ae db 2d
       -0.0163 -0.0771 -0.0858 -0.2025 -0.0953 0.0429 -0.09656 0.0915
0001a0 9d b0 29 b6 44 26 a0 25 24 1c c4 31 e2 19 64 34
       -0.1442 -0.385 0.02448 0.02197 0.004044 0.1802 0.002872 0.2744
0001b0 89 b2 0a aa bb 2e 9b 29 cc ae 0d 30 2f 28 d3 b4
       -0.2042 -0.04718 0.10516 0.0438 -0.1062 0.1266 0.03268 -0.3015
0001c0 cd a1 67 31 40 26 ad 2d a6 2f 49 aa 15 b1 22 b7
       -0.01133 0.1688 0.02441 0.0887 0.1195 -0.0491 -0.1588 -0.4458
0001d0 a3 2d 9c 35 47 b2 e6 27 f8 2e cc 2d 44 2c 4a 34
       0.0881 0.3506 -0.1962 0.03085 0.1089 0.0906 0.06665 0.268
0001e0 27 ac a1 2d 21 ac 17 98 33 2c dd ad db b4 4a 17
       -0.0649 0.08795 -0.0645 -0.001997 0.0656 -0.0916 -0.3035 0.00178
0001f0 43 2c c9 2c 31 b7 b1 32 c2 2c c6 ad d0 2e 0b 1b
       0.0666 0.07477 -0.4495 0.2091 0.07434 -0.0902 0.10645 0.003439

model/depthwise_conv2d_2/depthwise f2 [1, 3, 3, 64]
000000 05 3a c2 34 97 bb 11 38 d8 ae 87 3c c1 b5 0e 33
       0.7524 0.2974 -0.9487 0.5083 -0.10693 1.132 -0.3596 0.2205
000010 8a 9d e7 96 e2 a9 08 29 df ae ee 34 79 37 f5 bd
       -0.00541 -0.001685 -0.04596 0.0393 -0.10736 0.308 0.467 -1.489
000020 f0 b3 1d b3 5f 2e 15 b8 a4 b8 2d bc d8 b4 8a 35
       -0.248 -0.2223 0.09955 -0.5103 -0.58 -1.044 -0.3027 0.3462
000030 36 bc 1f 3c 5d b0 88 be 5f b7 25 32 c1 b8 da b1
       -1.053 1.03 -0.1364 -1.633 -0.4607 0.192 -0.594 -0.1829
000040 5e 39 b8 38 96 2e 51 b4 f6 b0 9c b6 28 2e b6 b6
       0.671 0.59 0.1029 -0.2698 -0.155 -0.413 0.0962 -0.4194
000050 12 b0 62 b3 4b b3 2a b6 71 36 20 b4 de 37 f0 b6
       -0.1272 -0.2307 -0.2279 -0.3853 0.4026 -0.2578 0.4917 -0.4336
000060 dd 36 31 35 79 35 c2 38 7d ac 4f 35 24 af 69 30
       0.429 0.3245 0.342 0.5947 -0.0701 0.3318 -0.1116 0.1378
000070 8c 34 75 33 4e b5 c4 28 43 b3 cb b9 31 37 67 39
       0.2842 0.233 -0.3315 0.03723 -0.2269 -0.724 0.4495 0.6753
000080 ca bb 84 30 86 ac 0b 3b 93 38 8a 3b 0c b4 fb 3c
       -0.9736 0.1411 -0.0707 0.8804 0.572 0.9424 -0.253 1.245
000090 fc a9 f2 3a 74 b8 d9 33 6e bd 8c b4 96 3e fe b4
       -0.04675 0.868 -0.5566 0.2452 -1.357 -0.2842 1.646 -0.312
0000a0 57 b8 2e 34 d4 b1 db ae ba 3f fc 3a 54 b2 e0 3c
       -0.5425 0.2612 -0.1821 -0.1071 1.932 0.873 -0.1978 1.219
0000b0 15 34 cc 3e a4 36 5d b9 f1 32 4a ae 06 c0 d8 38
       0.2551 1.699 0.415 -0.6704 0.2169 -0.09827 -2.012 0.6055
0000c0 a9 ac ab 3c d5 b5 c6 bc 4d 3d 60 c0 ae b6 0b b8
       -0.0728 1.167 -0.3645 -1.193 1.325 -2.188 -0.4175 -0.5054
0000d0 a7 3b dc ac 13 37 7b b6 5a bc 60 bb ca a2 e8 38
       0.9565 -0.0759 0.4421 -0.405 -1.088 -0.922 -0.01326 0.6133
0000e0 ab 3a 4f 40 92 31 fe 3f b1 b4 0e 3e 7d b8 bb 25
       0.8335 2.154 0.1741 1.998 -0.2932 1.514 -0.561 0.02238
0000f0 31 be 5e 38 56 b6 d9 ba cc c0 76 33 8a 3d df 2a
       -1.548 0.546 -0.396 -0.856 -2.398 0.2332 1.385 0.05368
000100 bf a7 2c bc 83 3b 79 bc 20 33 5d b4 dc 32 8d 34
       -0.03026 -1.043 0.939 -1.118 0.2227 -0.2727 0.2144 0.2844
000110 d2 aa fb b1 cd ae 1a 2f 5b 41 03 ad 22 2a 47 32
       -0.05328 -0.1869 -0.10626 0.11096 2.678 -0.0783 0.0479 0.1962
000120 15 34 42 39 b4 b4 ed ad 14 b5 14 3b a7 33 ea 37
       0.2551 0.657 -0.294 -0.0926 -0.3174 0.885 0.2391 0.4946
000130 31 33 2e 37 d2 38 b2 30 d4 2e 84 2d 8f b3 3c 39
       0.2247 0.4487 0.6025 0.1467 0.1067 0.0862 -0.2362 0.6543
000140 70 af 12 33 2b b0 8e b4 b3 3d 53 ba 6d b9 9c b4
       -0.1162 0.221 -0.1302 -0.2847 1.425 -0.7905 -0.678 -0.288
000150 82 2e 0c b2 c4 ae d4 b5 39 a9 ec b1 a3 bb d5 b0
       0.1017 -0.189 -0.1057 -0.3643 -0.0408 -0.185 -0.9546 -0.151
000160 e7 b3 d1 3a d4 32 51 3b 75 b1 cd aa 42 b5 13 30
       -0.247 0.852 0.2134 0.9146 -0.1705 -0.05313 -0.3286 0.1273
000170 b3 bb 45 b2 69 35 7d b2 1e 42 b9 31 86 b8 a5 b8
       -0.9624 -0.1959 0.3381 -0.2028 3.059 0.1788 -0.5654 -0.5806
000180 52 3c 7d bb 2f be 77 3d b2 b4 ac 3c 15 b3 97 34
       1.08 -0.936 -1.546 1.366 -0.2935 1.168 -0.2213 0.2869
000190 5c 39 32 b8 57 b3 25 2b f5 b4 ba b2 1a 39 5c 40
       0.67 -0.5244 -0.2294 0.05582 -0.3098 -0.2102 0.6377 2.18
0001a0 36 35 c4 b2 98 b7 e5 b8 c3 be 81 b2 ae 3d 76 35
       0.3257 -0.2114 -0.4746 -0.612 -1.69 -0.2032 1.42 0.3413
0001b0 c0 be d1 b1 4f 2f 53 b9 3d bd d2 35 7b bc 57 ba
       -1.6875 -0.1818 0.1142 -0.6655 -1.31 0.3638 -1.12 -0.7925
0001c0 ab 38 c6 39 9c 30 1c b3 36 b8 af 3b 12 20 97 41
       0.5835 0.7217 0.144 -0.2222 -0.5264 0.9604 0.00795 2.795
0001d0 20 b8 4d 34 ab 30 d9 32 37 b3 d7 b6 d3 b9 9b c0
       -0.5156 0.2688 0.1459 0.214 -0.2255 -0.4275 -0.728 -2.303
0001e0 ab 3f 44 bd 8a 34 ad a0 18 ad f9 b0 32 36 a8 36
       1.917 -1.316 0.2837 -0.00913 -0.0796 -0.1554 0.3872 0.416
0001f0 32 3c 31 ba e6 36 ef 32 5e a9 5d b1 5d b9 00 3e
       1.049 -0.774 0.4312 0.2167 -0.04193 -0.1676 -0.6704 1.5

model/conv2d_4/Conv2D f2 [64, 1, 1, 64]
000000 4b b1 c5 2b 5c ad 2d ac 54 28 7f 21 51 29 81 2e
       -0.1654 0.0607 -0.08374 -0.06525 0.0338 0.010735 0.04153 0.1016
000010 40 31 01 b0 94 30 0a 1c 62 21 cc 23 20 a1 48 b0
       0.1641 -0.1251 0.1431 0.003944 0.01051 0.01523 -0.01001 -0.1338
000020 2c b2 9d ab 6d 2e 19 b1 ee ab d2 2d c2 2c be b0
       -0.1929 -0.05948 0.1004 -0.1593 -0.06195 0.09094 0.07434 -0.1482
000030 eb 2b da 2c f1 15 73 2e da 2c 77 35 f8 a8 1a 2e
       0.06186 0.0758 0.001451 0.10077 0.0758 0.3416 -0.03882 0.09534
000040 5c a8 8d ac 57 2c 73 2a b9 23 22 2a ec 2d 3d 2d
       -0.03406 -0.0711 0.0678 0.05038 0.01508 0.0479 0.0925 0.08185
000050 15 28 71 aa ab a0 4f 31 17 2b e9 24 71 ad 0b b1
       0.0319 -0.05032 -0.00912 0.1659 0.0554 0.01918 -0.085 -0.1576
000060 ce 29 63 a4 69 22 ad a0 d5 2e c4 24 b1 34 9a 2c
       0.04535 -0.01714 0.01252 -0.00913 0.10675 0.01862 0.2932 0.0719
000070 46 a8 65 2a a8 a9 7a 25 5d a2 4b ae e7 22 a0 29
       -0.0334 0.04996 -0.0442 0.0214 -0.01243 -0.0983 0.01348 0.04395
000080 87 ac c9 28 53 a8 a1 30 15 b3 90 b1 95 9e 29 a4
       -0.07074 0.03738 -0.03378 0.1447 -0.2213 -0.1738 -0.006428 -0.01625
000090 c7 ab df 28 7e 93 f6 26 2c b1 f9 27 ed 2b 56 30
       -0.06076 0.03806 -0.0009146 0.02719 -0.1616 0.03114 0.06192 0.1355
0000a0 c2 28 44 b3 c4 26 db b0 8b a8 a5 29 d4 ac 02 2a
       0.03717 -0.227 0.02643 -0.1517 -0.0355 0.0441 -0.07544 0.04694
0000b0 47 aa c5 31 e1 a5 11 35 64 b0 e0 a2 7c 24 ed 2e
       -0.04904 0.1803 -0.02296 0.3167 -0.1372 -0.01343 0.01752 0.1082
0000c0 a9 ad cd 34 21 b0 a6 2d 37 20 77 2c 24 21 b4 9c
       -0.08844 0.3 -0.129 0.08826 0.00823 0.06976 0.01004 -0.004593
0000d0 41 32 29 29 2d b0 ae 31 46 ad 25 34 a9 ad 5c ab
       0.1954 0.0403 -0.1305 0.1775 -0.0824 0.259 -0.08844 -0.0575
0000e0 a2 27 83 34 98 9e 04 34 de ad 3a a7 d1 a5 07 30
       0.02982 0.282 -0.00644 0.251 -0.0917 -0.02823 -0.02272 0.1259
0000f0 f0 2d f9 2e 3b 2e f0 2d 34 a7 93 25 5a 31 5c b3
       0.0928 0.10895 0.09735 0.0928 -0.02814 0.02177 0.1672 -0.23
000100 15 a7 ce a5 e8 2b d6 24 d0 2d b4 32 e5 ad 4f ad
       -0.02766 -0.02267 0.06177 0.01889 0.0908 0.2095 -0.0921 -0.08295
000110 b7 b1 51 b0 b5 34 49 35 f8 28 56 24 e2 2e 2e a8
       -0.1786 -0.1349 0.2942 0.3303 0.03882 0.01694 0.10754 -0.03265
000120 7a a6 37 b0 8a a6 18 30 71 af ce 2d 07 aa d1 2d
       -0.0253 -0.1317 -0.02554 0.1279 -0.1163 0.0907 -0.0471 0.0909
000130 03 24 63 a2 f0 a5 8a 2a a0 31 2f 34 e0 a9 fd 30
       0.01567 -0.012474 -0.0232 0.0511 0.1758 0.2615 -0.0459 0.1559
000140 33 2a 74 35 fe ac ff 20 a4 2d 83 26 18 a6 bb a7
       0.04843 0.3408 -0.078 0.00976 0.08813 0.02544 -0.0238 -0.0302
000150 1d a7 68 2d cd 2d 51 a3 b3 a9 f4 2f 1a ad b9 ad
       -0.02779 0.0845 0.09064 -0.01429 -0.04453 0.12427 -0.0797 -0.0894
000160 31 ac cf a6 78 2f 5e 2d 03 a7 59 2a 51 ac 21 ac
       -0.0655 -0.0266 0.1167 0.08386 -0.02739 0.0496 -0.06744 -0.0645
000170 33 1b 68 9d 97 96 72 35 d4 20 e2 a7 e1 ac 1e 34
       0.003515 -0.00528 -0.001609 0.3403 0.00943 -0.03079 -0.07623 0.2573
000180 76 2c eb 2b dd ac 85 ac ff b0 98 b2 a4 1c 42 b4
       0.0697 0.06186 -0.076 -0.0706 -0.1561 -0.206 0.00453 -0.266
000190 9c 2d f1 ae 56 b2 37 b0 8c 2f 07 2a bf a5 b0 a7
       0.08765 -0.10846 -0.198 -0.1317 0.1179 0.0471 -0.02245 -0.03003
0001a0 3a 9a 82 29 aa af 8c a9 48 9d 64 2e 4f 14 b8 ab
       -0.00304 0.04303 -0.11975 -0.04333 -0.005157 0.09985 0.001052 -0.0603
0001b0 69 2c fa a9 09 2b 1b af fd 2e ab 30 47 b1 7d 34
       0.0689 -0.0467 0.05496 -0.111 0.1092 0.1459 -0.1649 0.2805
0001c0 83 ae 0a b1 57 2a 73 30 53 31 13 af 28 22 c2 ab
       -0.10175 -0.1575 0.04953 0.139 0.1664 -0.11053 0.012024 -0.0606
0001d0 65 b1 99 2e a2 ac 1a ab db b1 e1 aa 78 ab 2f 2e
       -0.1686 0.1031 -0.0724 -0.05548 -0.183 -0.05374 -0.05835 0.0966
0001e0 8c ae 71 a1 38 21 76 af 56 22 57 2e 28 34 c8 ad
       -0.1023 -0.01063 0.01019 -0.1166 0.012375 0.09906 0.2598 -0.09033
0001f0 fe 2a 47 b0 70 a9 4f ae 7c 20 34 32 3c 9a 98 ac
       0.05463 -0.1337 -0.04248 -0.0986 0.00876 0.1938 -0.003044 -0.0718

model/depthwise_conv2d_3/depthwise f2 [1, 3, 3, 64]
000000 8d b9 07 ad 44 27 aa 3c b5 bc 53 2e 7c b2 0a 39
       -0.694 -0.07855 0.02838 1.166 -1.177 0.0988 -0.2026 0.63
000010 6d 35 dd b2 64 b2 02 b2 e8 19 16 b1 59 ae 05 31
       0.339 -0.2145 -0.1997 -0.1877 0.002884 -0.1589 -0.0992 0.1569
000020 2d b0 06 b8 40 29 a4 32 4d b5 29 2e f3 39 48 bc
       -0.1305 -0.503 0.04102 0.2075 -0.3313 0.09625 0.7437 -1.07
000030 40 b1 1a 2d 0e 30 ec b2 2a b1 06 16 84 ba 3e b2
       -0.1641 0.0797 0.1267 -0.2163 -0.1614 0.001471 -0.8145 -0.1951
000040 16 3d 2b b8 8d ba 27 31 97 33 87 31 3f 38 6b 25
       1.271 -0.521 -0.819 0.161 0.2372 0.1727 0.531 0.02116
000050 82 b4 6c 34 bb b2 db b9 74 36 2f b3 61 b4 05 b8
       -0.2817 0.2764 -0.2103 -0.732 0.4033 -0.2245 -0.2737 -0.5024
000060 b4 3a ca b0 5e b8 7f 2e 21 31 58 be e5 b1 db b7
       0.838 -0.1497 -0.546 0.1015 0.1603 -1.586 -0.1842 -0.491
000070 1c 2c 4d a4 ae 95 f0 b0 75 37 3c b9 6a 2c 7c ae
       0.0642 -0.0168 -0.001387 -0.1543 0.466 -0.6543 0.069 -0.1013
000080 bc b4 ea b8 26 bc 84 3a 30 33 c1 32 c0 2c 2b 3c
       -0.296 -0.6143 -1.037 0.8145 0.2246 0.211 0.0742 1.042
000090 5b 39 bc 35 69 b0 4d bc 7f a5 ef ba 73 28 43 ad
       0.6694 0.3584 -0.1378 -1.075 -0.02147 -0.8667 0.03476 -0.0822
0000a0 ac b8 25 b3 ee 30 8a 21 7f b0 13 b6 1e bc 14 ba
       -0.584 -0.2233 0.154 0.01082 -0.1405 -0.3796 -1.029 -0.76
0000b0 79 b2 f3 32 d9 b2 99 b9 3c 3a f7 b5 59 b8 16 30
       -0.2023 0.2172 -0.214 -0.6997 0.7793 -0.3728 -0.5435 0.1277
0000c0 82 38 8b b4 e1 36 2e b6 d1 34 ef 2e 15 38 2b 2f
       0.5635 -0.284 0.43 -0.3862 0.301 0.10834 0.5103 0.112
0000d0 03 bc 05 35 27 a5 d1 ba dc 3c a6 30 7c b4 29 b8
       -1.003 0.3137 -0.02013 -0.852 1.215 0.1453 -0.2803 -0.52
0000e0 35 39 1a b6 b7 bb b2 35 23 3c 42 b0 cd 37 bf 35
       0.651 -0.3813 -0.9644 0.356 1.034 -0.133 0.4875 0.3591
0000f0 56 3b 53 b0 21 b4 71 ad e9 27 e8 ba 73 b3 b9 2e
       0.917 -0.1351 -0.258 -0.085 0.0309 -0.8633 -0.2328 0.10504
000100 82 37 b6 b8 37 30 df b5 c2 36 52 31 2a b3 9c 37
       0.4692 -0.589 0.1317 -0.367 0.4224 0.1663 -0.2239 0.4756
000110 5e 30 e8 b1 41 3c c0 ba a8 a6 af a4 fd ad c7 29
       0.1365 -0.1846 1.063 -0.8438 -0.026 -0.0183 -0.09357 0.04514
000120 24 b4 e2 9c 9e 2a c5 35 61 b5 77 b0 2c bb 63 b7
       -0.2588 -0.00477 0.0517 0.3606 -0.3362 -0.1395 -0.8965 -0.4617
000130 24 28 24 28 28 a4 d8 b0 7f b1 a8 b7 42 b5 ed ac
       0.03235 0.03235 -0.01624 -0.1514 -0.1718 -0.4785 -0.3286 -0.07697
000140 ec 20 58 35 ee 28 4e 35 11 a9 68 30 c1 30 47 14
       0.00961 0.334 0.0385 0.3315 -0.03958 0.1377 0.1486 0.001044
000150 a1 b5 41 3e 7c 38 a6 b6 e2 38 23 26 55 38 9b b9
       -0.3518 1.563 0.5605 -0.4155 0.6104 0.02397 0.5415 -0.7007
000160 f4 32 f9 ac c9 b8 eb 32 e6 ac fd 2b a4 3b 73 b3
       0.2173 -0.0777 -0.598 0.2162 -0.07654 0.0624 0.955 -0.2328
000170 c3 26 13 b4 24 31 8e a7 65 b1 4b b7 0a 30 e2 2e
       0.02641 -0.2546 0.1606 -0.02951 -0.1686 -0.4558 0.1262 0.10754
000180 e3 3e 0c a9 62 b4 ce 35 be b8 25 39 bb b1 8f 29
       1.722 -0.03943 -0.274 0.3628 -0.593 0.643 -0.1791 0.04343
000190 52 3b 5e b2 1a 2b 90 33 00 a9 72 b4 54 b4 66 34
       0.915 -0.199 0.05548 0.2363 -0.03906 -0.2778 -0.2705 0.275
0001a0 92 37 e8 b6 ad b6 dd af 7f b1 b4 b7 33 30 27 2c
       0.4731 -0.4316 -0.4172 -0.12286 -0.1718 -0.4814 0.1312 0.0649
0001b0 a4 b6 c6 98 e1 b5 b6 b6 cc 2c c2 2c 2c b3 6b b5
       -0.415 -0.00233 -0.3674 -0.4194 0.07495 0.07434 -0.2241 -0.3386
0001c0 16 a8 b0 b9 c1 ba 54 ac 3e 30 4d 9d d5 34 2a a3
       -0.03192 -0.711 -0.844 -0.0676 0.1326 -0.005177 0.302 -0.01399
0001d0 9e 34 ae b0 cb ad b6 20 7d 33 f3 31 ce b8 7a ac
       0.2886 -0.1462 -0.0905 0.0092 0.234 0.1859 -0.6006 -0.06995
0001e0 72 2a 97 ab ea ab 33 39 31 b3 f4 ba fc 2d d1 b6
       0.05035 -0.0593 -0.06183 0.65 -0.2247 -0.869 0.0935 -0.426
0001f0 74 bb 30 b8 54 34 4d b9 0e 3d 2a b7 fe a7 27 27
       -0.9316 -0.5234 0.2705 -0.6626 1.264 -0.4478 -0.03122 0.02794
