model/model_float32.tflite (tflite, 359724 bytes, 86 tensors)

model/tf.math.add_8/Add/y f4 [64]
0	0x3e406bef	0.18791173
1	0x3e7210b8	0.2363919
2	0x3ed94186	0.42432803
3	0x3d74993a	0.05971644
4	0xbba557a8	-0.00504585
5	0xbc70e920	-0.014704019
6	0x3e79ba64	0.24387509
7	0x3e3f817e	0.18701741
8	0x3ddad6df	0.10685515
9	0x3eda23d6	0.42605466
10	0xbdb8119a	-0.08987732
11	0xbe301b16	-0.17197832
12	0x3f2682c0	0.6504326
13	0xbe8c0ed4	-0.27355063
14	0x3e3f0e0a	0.18657699
15	0x3eddda46	0.43330592
16	0x3d84a0fc	0.06476018
17	0x3e8a29b8	0.26984954
18	0x3e918dac	0.284284
19	0x3f065739	0.5247684
20	0xbf520fa4	-0.82055116
21	0x3f130bcb	0.5743987
22	0x3e0fb481	0.140337
23	0xbdc3c272	-0.09558572
24	0x3f242b91	0.6412898
25	0xbe0b2792	-0.13589314
26	0xbf22558a	-0.6341177
27	0x3ec84cb5	0.39121023
28	0x3e60530e	0.21906683
29	0x3efdbbe0	0.495574
30	0xbddcf96e	-0.107897624
31	0x3e9d2efe	0.30699915
32	0x3e757af2	0.23972681
33	0x3e463537	0.19356237
34	0x3f2f6f8e	0.68529594
35	0x3ea4c17c	0.32178867
36	0xbf19bc7b	-0.60053223
37	0xbf5b270e	-0.8560647
38	0x3df42e40	0.11922884
39	0x3e34b5ae	0.1764743
40	0xbeaeaad0	-0.34114695
41	0x3ec53322	0.38515574
42	0x3e82d572	0.2555347
43	0x3eece424	0.46267807
44	0x3eabf00c	0.3358158
45	0x3ec4d96a	0.38447124
46	0x3e0d70a6	0.13812503
47	0x3de7715e	0.1130092
48	0x3e861fa6	0.2619602
49	0x3dbf9eeb	0.09356483
50	0xbd970832	-0.0737461
51	0xbdb02481	-0.086007126
52	0x3dd39442	0.10331012
53	0xbe527ec0	-0.20556164
54	0x3e9ec0a3	0.31006345
55	0x3ed23213	0.4105383
56	0xbc0baf90	-0.008525744
57	0x3f1a3120	0.6023121
58	0xbd8a3828	-0.06748992
59	0x3f779db9	0.9672504
60	0x3ea2903a	0.3175066
61	0x3eba0133	0.3632904
62	0x3ebbfc4f	0.36715934
63	0xbdc0f8bc	-0.09422442

model/tf.math.add_6/Add/y f4 [64]
0	0x3deb6620	0.11494088
1	0xbdb717c6	-0.08940081
2	0xbda9e5da	-0.08295794
3	0x3e53db2f	0.2068908
4	0x3e290d40	0.1650896
5	0x3c85e61d	0.016345078
6	0x3e11e44f	0.14247249
7	0x3e03d01e	0.12872359
8	0x3ea51308	0.32241082
9	0x3e527187	0.2055112
10	0x3f0d54a2	0.55207264
11	0xbf79c1ad	-0.9756115
12	0xbc82451d	-0.015902096
13	0xbc7f0154	-0.0155642815
14	0x3e3298e0	0.1744113
15	0x3d857221	0.06515909
16	0x3f408c82	0.752144
17	0x3f39c16e	0.72560775
18	0x3dc790ca	0.09744413
19	0x3e9bb6bf	0.30412862
20	0xbcfdbf6a	-0.030975062
21	0x3d37a0d2	0.044831105
22	0xbdfc5b22	-0.1232207
23	0x3dd6311a	0.10458584
24	0xbdcdab9e	-0.10042499
25	0xbc9c5d1a	-0.019087363
26	0x3eeaed86	0.4588434
27	0xbd5d7176	-0.054063283
28	0x3cb27eed	0.021789039
29	0x3e3b44d4	0.18287975
30	0xbce8134c	-0.028329514
31	0x3d103024	0.03520216
32	0x3e0d4dfa	0.13799277
33	0xbc674f38	-0.014118008
34	0x3ed278e0	0.41107845
35	0x3e2e86b2	0.1704357
36	0x3d5abbba	0.053401686
37	0x3de07845	0.109604396
38	0x3c745450	0.01491268
39	0xbe62a4d7	-0.22133194
40	0x3ebccfe6	0.36877364
41	0xbeeb4f94	-0.4595915
42	0x3e7dc3ef	0.24781774
43	0xbdbe3a8b	-0.0928851
44	0x3efe32be	0.49648088
45	0x3e1dbb66	0.15403518
46	0xbd4cd210	-0.05000502
47	0x3da84bac	0.08217558
48	0xbd9a915f	-0.075472586
49	0x3c9c094e	0.019047406
50	0xbd516428	-0.051120907
51	0x3d37048a	0.044682063
52	0x3d8c3286	0.06845574
53	0xbd896908	-0.06709486
54	0x3f0a6984	0.54067254
55	0x3ea436c9	0.32073048
56	0x3e3959b6	0.18100628
57	0xbbb48656	-0.005509178
58	0x3ecf42bc	0.40480602
59	0xbf10abc4	-0.56512094
60	0xbf1d7202	-0.6150209
61	0x3e2c9241	0.16852666
62	0xbdb653e8	-0.089027226
63	0xbccba09f	-0.024856864

model/tf.math.add_40/Add/y f4 [64]
0	0x3f26d0ef	0.6516256
1	0x3e8961ae	0.26832336
2	0xbe6f8762	-0.23391488
3	0x3f9c18cd	1.2195069
4	0xbe179ed1	-0.14806677
5	0xbd9f41ee	-0.07776247
6	0xbd30af38	-0.04313585
7	0xbc7cb6e0	-0.01542446
8	0xbdbbfe4e	-0.09179364
9	0x3fe25df8	1.7684927
10	0xbdc43600	-0.09580612
11	0xbb823320	-0.0039733797
12	0x3ea43665	0.3207275
13	0x3b295d00	0.0025842786
14	0xbe4fc100	-0.20288467
15	0xbf5d7e73	-0.8652107
16	0x3f427b7e	0.75969684
17	0x3e45a476	0.19301018
18	0x3f22d599	0.63607174
19	0x3f0657ee	0.5247792
20	0x3eb62b36	0.35579842
21	0x3eedef87	0.46471807
22	0xbcd23138	-0.025658235
23	0x3eec7a82	0.46187216
24	0x3e750c3e	0.23930451
25	0x3f7493fd	0.9553831
26	0x3e8f0f18	0.27941203
27	0xbeab5344	-0.33461964
28	0x3fc738ae	1.5564172
29	0x3f6b1652	0.91830933
30	0x3ed32785	0.41241089
31	0x3d68d6c6	0.05684545
32	0xbc8e67d0	-0.017383486
33	0x3f6bc4ec	0.92097354
34	0xbdf62f3e	-0.120207295
35	0x3f8c2634	1.0949159
36	0xbd6e7110	-0.058213294
37	0x3e0123b3	0.12611274
38	0x3c98c795	0.018649856
39	0x3f25c7e2	0.6475812
40	0x3e162e65	0.14666136
41	0x3e1fb0bd	0.15594764
42	0x3f7330ae	0.94996154
43	0xbd9352c9	-0.071935244
44	0x3e1b5958	0.151708
45	0x3d454dd4	0.048169926
46	0x3f88bb13	1.068209
47	0xbf1f5d8c	-0.62252116
48	0x3f671c09	0.90277153
49	0xbe05b5db	-0.13057654
50	0x3fb952cf	1.4478396
51	0x40138fb7	2.3056467
52	0x3db71bd8	0.08940858
53	0x3f2f2037	0.6840853
54	0xbde529a8	-0.11189586
55	0x3e3c5382	0.1839123
56	0x3fc6f690	1.5543995
57	0x3ede65cf	0.4343705
58	0x3ff0e970	1.882124
59	0xbf13bb68	-0.57707834
60	0x3fa36afe	1.2767026
61	0x3dc0e4e0	0.094186544
62	0x3e83425e	0.25636572
63	0x3f604fef	0.8762197

model/tf.math.add_4/Add/y f4 [16]
0	0x3f3144c3	0.6924555
1	0x3f2ff6e2	0.6873609
2	0x3fb2e7e6	1.397702
3	0x3e99ac4d	0.30014268
4	0x3e80706b	0.25085768
5	0x3e9c6e07	0.30552694
6	0x3f278f77	0.65453285
7	0x3f51931c	0.81865096
8	0x3f482450	0.7818041
9	0x3ff975c2	1.9489062
10	0x3ef65064	0.48108208
11	0x3efd71af	0.49500796
12	0x3f6c599c	0.92324233
13	0xbf577e84	-0.8417742
14	0x3ebbab38	0.36654067
15	0x3f0a56ed	0.5403889

model/tf.math.add_38/Add/y f4 [64]
0	0x3d31d5d3	0.04341681
1	0x3e6d9eb6	0.23205075
2	0x3d576f56	0.052596413
3	0x3deec413	0.11658492
4	0x3e56f926	0.2099348
5	0x3e5dd296	0.21662363
6	0x3e61f548	0.22066224
7	0x3ec64bb7	0.3872964
8	0x3ea24312	0.31691796
9	0x3ee98ccb	0.4561523
10	0xbe01f78e	-0.12692091
11	0x3d67cabe	0.056589834
12	0xbdbaa4dc	-0.09113476
13	0xbdba67bf	-0.09101819
14	0x3d5814fe	0.052754395
15	0x3e00516c	0.1253106
16	0x3d475ad4	0.048670605
17	0x3cf6bb92	0.030118737
18	0xbcfed8cc	-0.031109236
19	0xbe1bfba4	-0.15232712
20	0xbf937871	-1.1521131
21	0xbd395752	-0.04524929
22	0xbdce18e3	-0.100633405
23	0x3e808de7	0.25108263
24	0x3d10065b	0.03516231
25	0x3cef6de0	0.029227197
26	0x3eb2e8ae	0.34943146
27	0x3daf3acc	0.085561365
28	0x3ddfe3c8	0.10932118
29	0x3d5b5905	0.053551693
30	0x3eb2599d	0.34833995
31	0x3c9e16dc	0.01929801
32	0x3e35f25d	0.17768236
33	0xbd150aaa	-0.036387123
34	0x3e452a61	0.19254448
35	0x3eaf39b8	0.34223723
36	0x3d629772	0.05532021
37	0xbca50850	-0.020145565
38	0x3e062885	0.13101394
39	0x3d05cc3d	0.03266548
40	0x3eb98fdc	0.36242568
41	0xbc24ef38	-0.0100668
42	0x3d2078a0	0.039177537
43	0x3e0ca217	0.13733707
44	0x3e2e8934	0.17044526
45	0x3db3b19f	0.08774113
46	0xbdee7ad0	-0.116445184
47	0x3b839eb0	0.0040167198
48	0x3d8e8fca	0.06961019
49	0x3e144b30	0.14481807
50	0x3e626744	0.22109705
51	0xbcf8e821	-0.030384125
52	0x3dca15e7	0.09867459
53	0x3d9f3bc4	0.07775071
54	0x3e927436	0.28604287
55	0x3e215638	0.15755546
56	0x3cfa2ae0	0.030538023
57	0x3e11c1e2	0.14234117
58	0x3c617198	0.013759993
59	0xbd90b5b4	-0.07065907
60	0x3cf739f2	0.030178998
61	0x3e290312	0.16505077
62	0x3e1d49aa	0.15360132
63	0x3cbfd32c	0.023416124

model/tf.math.add_36/Add/y f4 [64]
0	0x3e145ae2	0.14487794
1	0xbda8ed1d	-0.08248351
2	0x3e2758b1	0.16342427
3	0xbbfb3860	-0.0076666325
4	0xbe922710	-0.28545427
5	0x3cac04db	0.020998409
6	0x3d9f6840	0.07783556
7	0x3d9462f9	0.0724544
8	0xbe20764c	-0.15670127
9	0xbdf5f3ba	-0.12009378
10	0x3d7828ca	0.060585774
11	0x3e1696fa	0.1470603
12	0xbe429682	-0.19002727
13	0x3ddda0c2	0.10821678
14	0x3f30bf70	0.6904211
15	0xbdb860b3	-0.09002819
16	0x3c13d8a1	0.009023816
17	0x3c67d162	0.014149042
18	0xbd61a372	-0.055087514
19	0x3ccb220e	0.024796512
20	0xbd86241f	-0.06549858
21	0xbd9beb69	-0.0761326
22	0xbd45d676	-0.04830023
23	0xbdb17d88	-0.08666521
24	0xbdac7e56	-0.08422534
25	0xbedbc24c	-0.42921674
26	0xbd0da1a8	-0.034577996
27	0x3daa4a43	0.083149455
28	0xbe165d43	-0.14684014
29	0xbcdea9a6	-0.027180504
30	0xbdd70538	-0.10499042
31	0xbd26304a	-0.040573396
32	0x3e3a2109	0.18176664
33	0x3e019c2c	0.12657231
34	0xbd025bed	-0.03182595
35	0xbd834512	-0.064096585
36	0xbdd81561	-0.10550953
37	0x3da1870d	0.07887087
38	0x3ecdccfd	0.40195456
39	0x3c1a2099	0.009407186
40	0xbc913cb6	-0.017729145
41	0xbe5f4553	-0.21803789
42	0xbc98a538	-0.01863347
43	0xbc0acec7	-0.008472151
44	0xbdaedb03	-0.08537867
45	0x3d69eb8b	0.057109397
46	0x3de2082f	0.11036717
47	0xbd38ca56	-0.045114838
48	0xbefa5cf8	-0.48899055
49	0x3d4dbd09	0.050229106
50	0xbda5252c	-0.080637306
51	0x3d2e6742	0.042578943
52	0xbd7262e8	-0.059176356
53	0x3df6912f	0.1203941
54	0xbcbf9ed8	-0.023391172
55	0xbd0a0292	-0.033693857
56	0x3deb9c4d	0.115044214
57	0xbb092905	-0.002092899
58	0x3d8c6163	0.068545125
59	0x3e343996	0.17600092
60	0x3e0dc668	0.13845217
61	0x3d185693	0.03719194
62	0xbe05ab00	-0.13053513
63	0x3c944bca	0.018102545

model/tf.math.add_32/Add/y f4 [64]
0	0x3e8f3b79	0.27975062
1	0x4002b0c8	2.0420399
2	0x3f8ed224	1.115788
3	0x3e93db30	0.28878164
4	0x3f1c02ed	0.60941964
5	0x3f4a37a8	0.78991175
6	0x40036ecb	2.0536373
7	0xbe26e9e6	-0.16300163
8	0x3e3b16b2	0.18270376
9	0x3fa635de	1.2985189
10	0x3d6198d4	0.05507739
11	0x3e53f51a	0.20698968
12	0x3e4292d8	0.19001329
13	0x3e5703d4	0.20997554
14	0x3f81aab8	1.0130224
15	0x3f3798e1	0.7171765
16	0xbf264df2	-0.64962685
17	0xbd50bd18	-0.050961584
18	0x3f9df54a	1.2340481
19	0xbe5c7346	-0.21528348
20	0x3f102afa	0.5631558
21	0xbcfcf5f0	-0.03087899
22	0x3f93d5b3	1.1549591
23	0xbf04b714	-0.51841855
24	0xbebc29d6	-0.36750668
25	0xbda5cf40	-0.080961704
26	0x3fd70033	1.6796936
27	0x3ede6fee	0.4344477
28	0x3ea05659	0.31315878
29	0x400b7fb9	2.1796706
30	0x3fc6da89	1.5535442
31	0xbcddf808	-0.02709581
32	0x3fe898fa	1.8171685
33	0x3d318837	0.043342795
34	0xbdc0b7c0	-0.094100475
35	0xbd926760	-0.071486235
36	0xbbbd7dc0	-0.005782813
37	0x3f81982a	1.0124562
38	0x3e2568b2	0.1615322
39	0x3c856b50	0.016286522
40	0xbd0a3ff8	-0.03375241
41	0x404fe64c	3.2484312
42	0xbdf4be60	-0.11950374
43	0x3e87fb80	0.26559067
44	0x3e837085	0.25671783
45	0x3f088de8	0.5334153
46	0x3eae3a50	0.34028864
47	0xbe3e7418	-0.18598974
48	0x3e80d91a	0.25165635
49	0x3e41be3b	0.18920223
50	0xbdc0d8e0	-0.094163656
51	0x3ea3a13d	0.31958953
52	0x3f8d22f0	1.1026287
53	0x3e838fa4	0.25695527
54	0x3e6fc7e4	0.23416096
55	0x3ea45f0e	0.3210377
56	0xbdcbeafa	-0.099569276
57	0xbb59bd70	-0.0033224486
58	0x3ebaadaa	0.3646062
59	0x3fd04060	1.6269646
60	0xbe16b476	-0.14717278
61	0x3fe72b44	1.8060079
62	0xbf2a346a	-0.6648623
63	0xbe5337f5	-0.20626815

model/tf.math.add_30/Add/y f4 [64]
0	0xbd8031cc	-0.06259498
1	0x3e5ae546	0.21376523
2	0x3e87baba	0.2650965
3	0xbdccd7a4	-0.10002068
4	0x3e3a2940	0.18179798
5	0x3e5f4ce5	0.21806677
6	0xbd03fd04	-0.032223716
7	0xbc2d07ac	-0.010560911
8	0xbbae8a20	-0.0053265244
9	0x3da13a78	0.0787248
10	0xbdcc45d0	-0.09974253
11	0xbd26968e	-0.040670924
12	0x3ea50b52	0.322352
13	0xbec9b22d	-0.3939375
14	0xbd214804	-0.03937532
15	0x3ea55698	0.32292628
16	0x3e3971ae	0.18109772
17	0x3e239c4e	0.15977594
18	0x3e116cb0	0.14201617
19	0xbdbf0e6e	-0.09328924
20	0x3bfc9d70	0.0077091977
21	0x3e3a8e83	0.18218426
22	0x3ea684c0	0.32523155
23	0xbf055366	-0.5208038
24	0x3d8c2730	0.06843412
25	0x3dedef73	0.11617937
26	0xbe851f75	-0.26000562
27	0xbcce8abe	-0.025212642
28	0xbedf6a64	-0.43635857
29	0xbed3e317	-0.41384193
30	0x3e72d706	0.23714837
31	0xbcac3c1c	-0.021024756
32	0x3da21f9b	0.079161845
33	0x3e350194	0.17676383
34	0x3d1e6146	0.038666986
35	0x3d583378	0.05278346
36	0x3e3de9b5	0.18546183
37	0x3bb22a40	0.0054371655
38	0x3f055eea	0.5209795
39	0x3ca54740	0.020175576
40	0x3c36c0ee	0.011154396
41	0x3dcadd88	0.09905535
42	0x3e112b99	0.14176787
43	0x3e6610e6	0.22467384
44	0x3c1ea740	0.00968343
45	0x3a29c700	0.00064764917
46	0x3e927131	0.28601983
47	0xbeea6e93	-0.45787486
48	0x3f0dac9e	0.5534152
49	0xbe97710c	-0.29578435
50	0x3d219b0d	0.03945451
51	0xbd91056c	-0.07081112
52	0x3e8d3873	0.2758213
53	0x3e4c860e	0.19973013
54	0xbce37310	-0.027764827
55	0x3e63b7e6	0.2223812
56	0x3da82d84	0.082118064
57	0xbec15dde	-0.37766927
58	0xbbc74988	-0.0060817637
59	0xbe63644a	-0.22206226
60	0xbd1473e8	-0.03624335
61	0xbba74510	-0.0051046684
62	0xbc009a60	-0.007849306
63	0x3e0a784c	0.13522452

model/tf.math.add_28/Add/y f4 [64]
0	0xbd8c2aae	-0.06844078
1	0x3e279161	0.16364051
2	0x3e3c8ab2	0.18412283
3	0xbdfb546f	-0.12271964
4	0xbe9efc70	-0.3105197
5	0xbf2a3fed	-0.66503793
6	0xbdc258c4	-0.09489587
7	0x3d472b1c	0.048625097
8	0x3d24dfcc	0.04025249
9	0x3e496910	0.19668984
10	0x3b6ef3e5	0.003646129
11	0xbbe2bfb0	-0.0069198236
12	0x3e02fea8	0.12792456
13	0xbe043f83	-0.12914853
14	0x3d4d7802	0.050163276
15	0xbe1156fe	-0.14193341
16	0x3e0309d4	0.12796718
17	0x3de5da2c	0.112232536
18	0x3c00b79e	0.007856278
19	0xbf079de7	-0.52975315
20	0x3cc1243c	0.023576848
21	0x3d5a4756	0.053290688
22	0x3cdf78b2	0.027279232
23	0x3d3f77e1	0.046745185
24	0x3cfe5628	0.031046942
25	0xbe86d924	-0.2633754
26	0xbcb3cf4a	-0.021949429
27	0xbcd2860d	-0.025698686
28	0x3e03b803	0.12863164
29	0x3d9ea541	0.077463634
30	0xbe2051b7	-0.15656172
31	0xbdb9d97d	-0.09074686
32	0xbd856ae1	-0.06514526
33	0x3e5e499e	0.2170777
34	0xbee31b18	-0.44356608
35	0x3dda548a	0.10660656
36	0xbe37a3a0	-0.17933512
37	0xbca7f156	-0.02050082
38	0xbd8a94f4	-0.06766692
39	0x3e564ce8	0.20927775
40	0x3e8b1afc	0.27169025
41	0x3dc41273	0.095738314
42	0x3dd4a586	0.103831336
43	0xbdcac108	-0.09900099
44	0xbdefa91a	-0.117021754
45	0xbda42231	-0.08014334
46	0xbc067fb8	-0.008209161
47	0x3e2ff568	0.17183459
48	0x3dbc566b	0.091961704
49	0x3cafdc01	0.02146721
50	0x3defe68d	0.11713896
51	0x3e92939b	0.2862824
52	0xbddbb38d	-0.10727606
53	0xbdfb28af	-0.12263619
54	0x3d543fb4	0.051818565
55	0x3c2e7352	0.010647612
56	0xbd75bd3f	-0.059994932
57	0x3e5f5762	0.21810678
58	0xbde6928e	-0.11258422
59	0x3cf68f20	0.030097544
60	0x3bf157c8	0.0073652007
61	0x3b3f2930	0.0029168837
62	0x3d824760	0.0636127
63	0xbd5213bf	-0.051288363

model/tf.math.add_24/Add/y f4 [64]
0	0xbea853d9	-0.3287647
1	0x3e8c8d94	0.27451766
2	0x3fc7e224	1.5615888
3	0x3ee742dc	0.45168197
4	0x3ee8fa58	0.45503497
5	0x3f11778f	0.56823057
6	0x3f119e7a	0.5688244
7	0xbefc24b8	-0.49246764
8	0x3f1d877b	0.6153485
9	0xbe6ca5d4	-0.23110133
10	0x402fa36d	2.7443497
11	0x3fdec6ef	1.740446
12	0x3fa87dcc	1.316339
13	0xbedb58e8	-0.42841268
14	0x3f1de4ab	0.61677045
15	0x3ff7585e	1.9323843
16	0xbc137f00	-0.009002447
17	0xbfa93c8d	-1.3221604
18	0x3f25dac3	0.6478693
19	0x3f2462ec	0.6421344
20	0xbe3f795c	-0.18698639
21	0x3c850d48	0.016241685
22	0x3f806c53	1.0033058
23	0x3d3f6f4c	0.046737
24	0xbee357f4	-0.4440304
25	0x3fce63e0	1.612423
26	0x3fe198d7	1.7624768
27	0x3e6e302c	0.23260564
28	0x3f6d7706	0.9275974
29	0x4086ff33	4.2186522
30	0x3f2279f7	0.63467354
31	0x3fc5c71a	1.5451386
32	0x3f4b9efe	0.7953948
33	0x3f72f85e	0.9491023
34	0x404b9590	3.1810036
35	0xbf59f1b6	-0.85134447
36	0x3f0e4464	0.55573106
37	0x3de39ee6	0.11114292
38	0xbd72441c	-0.059146985
39	0x3fe96078	1.8232565
40	0x40449eb4	3.0721865
41	0x402c7916	2.6948905
42	0xbdd03c68	-0.101677716
43	0xbd14b9b2	-0.036309905
44	0xbd8d2b0a	-0.06892975
45	0x3f3d2779	0.73888355
46	0x3eb6e084	0.35718167
47	0x3f32c1c0	0.6982689
48	0x3fee4b4e	1.8616731
49	0x3ed09bd9	0.40743902
50	0x3fd270cc	1.6440673
51	0x3ea55992	0.322949
52	0x3fdfa29e	1.7471502
53	0xbb21b180	-0.0024672449
54	0xbfbfd90a	-1.498811
55	0x3fc15b86	1.5106056
56	0x3ff89742	1.942116
57	0x3f46115a	0.77370226
58	0x3ef5b926	0.4799282
59	0x400dfa51	2.218403
60	0xbdac907e	-0.08425997
61	0x3f31a22c	0.6938808
62	0x3eb63cde	0.35593313
63	0xbeb51ecd	-0.35375062

model/tf.math.add_22/Add/y f4 [64]
0	0x3c6334a0	0.013867527
1	0x3d6cbf50	0.057799637
2	0x3c1ed3a0	0.00969401
3	0x3e54da97	0.2078651
4	0x3df59d9c	0.11992952
5	0x3f0347fc	0.51281714
6	0xbceff898	-0.029293343
7	0x3f0577ad	0.52135736
8	0xbd859e9a	-0.065243915
9	0x3c7ef870	0.015562162
10	0x3df2a405	0.118476905
11	0xbeeacb8a	-0.45858413
12	0x3d96c56e	0.073618755
13	0x3e8f0c1b	0.27938923
14	0x3e2c1a46	0.16806898
15	0xbdf83123	-0.12118747
16	0xbebafb70	-0.36519957
17	0x3e498932	0.19681242
18	0x3f1b7cad	0.60737115
19	0x3eb68218	0.3564613
20	0x3d34ae3c	0.044111475
21	0x3dd58315	0.104253925
22	0x3ec75ba7	0.38937113
23	0xbdc86a60	-0.097859144
24	0x3f07508e	0.5285729
25	0x3d2da1fe	0.042390816
26	0xbe50b8ca	-0.20382991
27	0x3e834a1c	0.25642478
28	0xbced43c2	-0.028962974
29	0xbeb19e2c	-0.34690988
30	0x3e40165c	0.1875853
31	0xbd0de7fa	-0.03464506
32	0x3d5f9f3b	0.054595213
33	0x3eb72435	0.3576981
34	0x3cb33ab0	0.02187857
35	0xbd84c647	-0.06483131
36	0xbef4b047	-0.4779074
37	0xbde94b87	-0.11391359
38	0x3d252df3	0.040327024
39	0x3df4b139	0.11947865
40	0x3ed11d91	0.4084287
41	0x3eee2522	0.46512705
42	0xbc006100	-0.007835627
43	0x3d822f58	0.06356686
44	0xbf219c7a	-0.6312939
45	0x3ea86c4d	0.32895127
46	0x3dec2d94	0.11532131
47	0xbe36d3ee	-0.17854282
48	0xbd867937	-0.06566089
49	0x3e4a70a1	0.19769527
50	0x3db7fee5	0.08984164
51	0x3e7fce4a	0.24981037
52	0xbe0c5906	-0.13705835
53	0xbcdbcf30	-0.026832193
54	0xbd63dc92	-0.055630274
55	0xbc6fe870	-0.01464282
56	0x3d0ca526	0.034337185
57	0x3b0a87c0	0.0021138042
58	0x3f0c39bc	0.54775596
59	0xbc08ce00	-0.0083498955
60	0x3e807b50	0.2509408
61	0xbc20f193	-0.009823221
62	0x3eb22b45	0.34798637
63	0xbdbe60b2	-0.09295787

model/tf.math.add_20/Add/y f4 [64]
0	0xbe0780ac	-0.13232678
1	0xbef3d0c6	-0.4762022
2	0x3e0a30a5	0.13495119
3	0x3eb9a43c	0.36258113
4	0x3cbd6fda	0.023124624
5	0xbda5a498	-0.080880344
6	0xbea5cf1a	-0.32384568
7	0xbc0d1b58	-0.008612476
8	0xbe5367f4	-0.20645124
9	0x3ed8e939	0.42365435
10	0xbe1db51c	-0.15401119
11	0xbb1d24c0	-0.0023978204
12	0x3e11e2e6	0.14246711
13	0xbf468739	-0.77550083
14	0x3e06f6a6	0.13180026
15	0x3e4f6984	0.20255095
16	0x3ebd6c80	0.3699684
17	0x3db13e48	0.08654457
18	0xbca70548	-0.02038826
19	0x3e4ba996	0.1988891
20	0x3e1f5196	0.15558466
21	0xbffe86fe	-1.9884946
22	0xbd64c30c	-0.055850074
23	0x3afc8f00	0.0019268692
24	0x3e2684ba	0.16261569
25	0xbc3de990	-0.01159133
26	0xbec9041c	-0.39260948
27	0x3e70f8b1	0.23532368
28	0x3cb45ef6	0.022017937
29	0x3dbb7936	0.091539785
30	0xbd201d5a	-0.03909049
31	0xbdbd47a8	-0.09242183
32	0xbdc49f7f	-0.09600734
33	0x3e896f49	0.26842716
34	0xbdae8d2a	-0.08523019
35	0x3d968ae3	0.07350709
36	0x3e09f3e2	0.1347194
37	0x3d98bc93	0.07457843
38	0xbada36d4	-0.001664842
39	0x3e8544e1	0.26029113
40	0x3e81509a	0.25256807
41	0x3ea9b84c	0.3314842
42	0x3d19b3bc	0.037524924
43	0x3e963516	0.29337376
44	0xbe3682b1	-0.17823292
45	0xbdb13c5b	-0.0865409
46	0xbb57ba70	-0.0032917522
47	0x3e580940	0.21097279
48	0xbecb6552	-0.3972574
49	0x3cdbae48	0.026816502
50	0xbc15dbc0	-0.009146631
51	0x3ecd6c75	0.4012181
52	0x3d8dfef3	0.06933393
53	0xbf3af7b9	-0.73034245
54	0x3c0407ba	0.008058483
55	0xbdf7a4cd	-0.1209198
56	0x3e87b0e6	0.2650215
57	0x3dc84eba	0.09780641
58	0x3e6ad000	0.22930908
59	0x3df80a72	0.12111367
60	0x3d022614	0.031774595
61	0xbe160146	-0.14648923
62	0xbe49867c	-0.19680208
63	0x3e1aa66e	0.1510255

model/tf.math.add_2/Add/y f4 [16]
0	0xbcc4fdda	-0.024046827
1	0xbc94b3fe	-0.018152233
2	0xbd026932	-0.031838603
3	0xbf9e0d5f	-1.234783
4	0xbd014229	-0.031557236
5	0x3f2f09c0	0.6837425
6	0xbe30fddc	-0.1728434
7	0xbd6399d0	-0.05556661
8	0x3e9fbada	0.31197244
9	0xbcf8cf03	-0.030372148
10	0x3f02e1f0	0.51126003
11	0x3da789ce	0.08180581
12	0x3e68337a	0.22675887
13	0x3e7d6fbc	0.24749655
14	0xbcb349f0	-0.021885842
15	0x3ef2a088	0.473881

model/tf.math.add_16/Add/y f4 [64]
0	0x3ec911ac	0.39271295
1	0x3e3287ac	0.17434567
2	0x3fb97477	1.4488667
3	0xbf93a9f0	-1.1536236
4	0x3f4ebc19	0.80755764
5	0x3ff2430a	1.8926709
6	0xbe9192e0	-0.2843237
7	0x3e84be93	0.25926647
8	0x3f6aa37c	0.9165571
9	0x3fee21a9	1.8604022
10	0xbf2eb11d	-0.68239003
11	0x3f092d1c	0.53584456
12	0x3f82e19e	1.0225103
13	0x407fd0b4	3.9971132
14	0xbe4d34b4	-0.20039636
15	0x3ff3cfb6	1.9047763
16	0x3e9c6a58	0.30549884
17	0xbeec773a	-0.46184713
18	0xbf1121e8	-0.5669236
19	0xbf427580	-0.7596054
20	0xbb4b8700	-0.0031055808
21	0x3eed8404	0.46389782
22	0x3faeb6b3	1.3649505
23	0xbec85502	-0.39127356
24	0x3e8a70c4	0.27039158
25	0xbe18ba98	-0.1491493
26	0x3fa64476	1.2989643
27	0x3f98cade	1.193691
28	0x40035267	2.0519044
29	0xbeb31dc8	-0.3498366
30	0x3f9fd3f2	1.2486556
31	0x3f6ca43f	0.9243812
32	0x3f4d0044	0.8007853
33	0x4028d23c	2.6378317
34	0x3f59eade	0.85124004
35	0x3ebaa93f	0.3645725
36	0x3f735c6a	0.9506289
37	0x3e5d967e	0.2163944
38	0x40148228	2.320444
39	0x3f93248b	1.1495527
40	0x3f00263e	0.5005835
41	0x4022be29	2.5428565
42	0x3f828c1c	1.0199008
43	0x3f8a2158	1.0791426
44	0x3e7710ff	0.24127577
45	0x40022299	2.0333617
46	0x3f8c98b9	1.0984107
47	0x403cc838	2.9497204
48	0xbf20bd29	-0.62788635
49	0x3fc759fa	1.5574334
50	0xbf9541f0	-1.1660748
51	0xbeca3215	-0.39491335
52	0x3fdf1aa2	1.7430003
53	0xbf55d03c	-0.83520865
54	0x3f821d32	1.016516
55	0x3ea2792e	0.31733078
56	0x3fad11bd	1.3521038
57	0x3fa4ade5	1.2865568
58	0x3f58cd20	0.84687996
59	0x3f3a4eea	0.72776663
60	0x3f90f2c0	1.1324081
61	0x404d7f34	3.2108889
62	0x3f487fa4	0.78319764
63	0x3f55b28e	0.8347558

model/tf.math.add_14/Add/y f4 [64]
0	0x3d5dd084	0.054153934
1	0x3f317b4d	0.6932877
2	0x3eee0f12	0.46495873
3	0x3ef1aa20	0.47200108
4	0xbcedf037	-0.029045207
5	0x3ec29cc2	0.38010222
6	0x3ea1bc0d	0.31588784
7	0x3e187c13	0.1489108
8	0x3d9bcd64	0.076075345
9	0xbddf14ab	-0.10892614
10	0x3e6a9124	0.22906929
11	0xbef4c223	-0.47804365
12	0x3cbab0d0	0.022789389
13	0xbd069fb8	-0.032867163
14	0xbe11162a	-0.14168611
15	0xbea2cb72	-0.3179584
16	0x3e016936	0.12637791
17	0x3f0188d3	0.505994
18	0xbe35b586	-0.17745027
19	0x3dac5b0a	0.08415802
20	0xbdfad408	-0.12247473
21	0x3e164a36	0.14676747
22	0x3f061f4d	0.5239151
23	0x3edbf445	0.429598
24	0xbf03f87b	-0.51551026
25	0x3ee4e21c	0.44703758
26	0x3f397294	0.7244046
27	0x3e7629b8	0.24039352
28	0x3d8e6fe1	0.06954933
29	0x3e4f7154	0.20258075
30	0xbd85d0f7	-0.065339975
31	0x3c9e5fd0	0.019332796
32	0xbdd4c76c	-0.10389599
33	0x3e195cc3	0.14976792
34	0x3d1ace3c	0.037794337
35	0x3eb4dec5	0.3532621
36	0x3e8a3541	0.26993755
37	0x3bb47140	0.0055066645
38	0x3e868e04	0.26280224
39	0xbd32e2ed	-0.043673445
40	0x3db742c8	0.089482844
41	0x3e3d81a6	0.18506488
42	0x3de7712d	0.113008834
43	0x3ea11d75	0.31467786
44	0x3f3512fe	0.70732105
45	0x3e345705	0.1761132
46	0x3e0c1f94	0.13683921
47	0x3d5f3fdc	0.05450426
48	0x3eadd25d	0.33949557
49	0xc0623b49	-3.5348685
50	0x3f9389d4	1.1526437
51	0xbe8ab092	-0.27087837
52	0xbf04e7a2	-0.51915944
53	0xbf230b00	-0.6368866
54	0xbdf66187	-0.120303206
55	0x3ed8299d	0.42219248
56	0xbe0c4863	-0.13699488
57	0xbe9a777a	-0.30169278
58	0xbfe7c096	-1.8105648
59	0x3e4d6136	0.20056614
60	0x3e4fe7a2	0.20303205
61	0x3df3f980	0.11912823
62	0x3ee23f0c	0.44188726
63	0x3eba189b	0.36346897

model/tf.math.add_12/Add/y f4 [64]
0	0x3ea3e966	0.32014006
1	0x3e6fdf26	0.23424968
2	0x3e5f6f86	0.21819887
3	0xbe804cb1	-0.2505851
4	0xbe7e2066	-0.24817047
5	0xbef06cae	-0.46957916
6	0x3f71fa8e	0.9452294
7	0x3e9ff1fa	0.312393
8	0x3e316141	0.17322256
9	0x3ee1d843	0.44110307
10	0x3ead2e6d	0.33824483
11	0xbe961529	-0.2931302
12	0x3d1eded3	0.03878672
13	0x3e23b835	0.15988238
14	0xbee4bf47	-0.44677183
15	0x3d899750	0.06718314
16	0xbe52ae64	-0.20574337
17	0x3de2cf3b	0.11074682
18	0x3e7872c5	0.24262531
19	0xbfd112a9	-1.633382
20	0xbe5f3c52	-0.21800354
21	0x3e17679d	0.14785619
22	0xbd2935a5	-0.041310925
23	0x3e44c04c	0.1921398
24	0x3e7b0ecd	0.24517365
25	0x3ddd86f7	0.10816758
26	0xbe722182	-0.23645595
27	0xbcb33516	-0.0218759
28	0x3dafc78e	0.08582984
29	0x3ee72d6c	0.45151842
30	0x3e831564	0.25602257
31	0x3e624224	0.22095543
32	0x3f97a2e2	1.1846583
33	0xbe11df30	-0.14245296
34	0xbeadd28f	-0.33949706
35	0x3df96940	0.12178278
36	0x3efcf148	0.49402833
37	0xbe8b3415	-0.27188173
38	0xbdf164f0	-0.117868304
39	0x3f460f50	0.77367115
40	0xbea0a0c4	-0.31372654
41	0x3c91f69c	0.017817788
42	0xbe45286c	-0.19253701
43	0x3e6f81d4	0.23389369
44	0x3e97ca6e	0.2964663
45	0xbdb91390	-0.090369344
46	0xbed3ccf0	-0.41367292
47	0x3da36908	0.079790175
48	0x3e07a7a2	0.1324754
49	0xbca0f08d	-0.019645954
50	0xbed5ac2a	-0.41732913
51	0xbe9e67cf	-0.30938575
52	0x3e116c83	0.1420155
53	0xbeb0de00	-0.34544373
54	0xbe600482	-0.2187672
55	0xbe2551da	-0.16144505
56	0x3deac1da	0.114627555
57	0x3e3d6f9f	0.18499611
58	0x3df337a0	0.11875844
59	0x3e34bee7	0.17650948
60	0xbde57208	-0.1120339
61	0xbdf314fd	-0.118692376
62	0xbc91f1e6	-0.017815541
63	0x3e0bc404	0.13648993

model/tf.math.add_10/Add/y f4 [64]
0	0x3e18ecb4	0.14934045
1	0x3b522260	0.0032063946
2	0xbdb7c6f0	-0.08973491
3	0x3f3dd566	0.74153745
4	0x3e7e6b96	0.24845728
5	0xbe764462	-0.24049523
6	0x3ed62b26	0.41829795
7	0xbf28f82d	-0.66003686
8	0x3f17c794	0.5928891
9	0x3eada595	0.33915392
10	0xbe94dd3b	-0.29075035
11	0xbe12ce13	-0.14336424
12	0xbe1ebf3e	-0.1550264
13	0x3cb8f668	0.022578433
14	0x3e0895ba	0.13338366
15	0x3e96bf5f	0.2944288
16	0x3ea7d563	0.3277999
17	0xbe5639f7	-0.2092055
18	0xbf48d0a1	-0.7844334
19	0x3f5dc52c	0.86628985
20	0x3cdab6f0	0.02669856
21	0xbe595dde	-0.21227214
22	0x3e1df500	0.15425491
23	0x3e89ecc0	0.26938438
24	0x3ea79506	0.32730883
25	0x3ebd4788	0.36968637
26	0xbe03fea9	-0.12890114
27	0xbf400d2d	-0.75020105
28	0xbe7eb3ac	-0.24873227
29	0xbe85bd58	-0.2612102
30	0x3f08f689	0.5350118
31	0x3b8413c0	0.0040306747
32	0xbe04e125	-0.12976511
33	0x3e472948	0.19449341
34	0xbcee4f60	-0.029090583
35	0xbebfb35e	-0.37441534
36	0x3e07814c	0.13232917
37	0xbd27a520	-0.04092896
38	0x3daa3469	0.08310778
39	0xbb2819a0	-0.002565004
40	0x3d9d44d4	0.076791435
41	0xbcc57950	-0.024105698
42	0xba9e3680	-0.0012070686
43	0x3e7bd3bf	0.24592493
44	0xbebc83fc	-0.36819446
45	0x3e100a04	0.1406632
46	0xbe58dd50	-0.21178174
47	0x3f67ebfd	0.90594465
48	0xbdcf2acd	-0.101155855
49	0x3d82f0be	0.06393574
50	0xbd98ce18	-0.07461184
51	0xbec6898c	-0.38776815
52	0xbef67938	-0.48139358
53	0x3e1fb8c6	0.15597829
54	0xbf0a7cb8	-0.54096556
55	0xbe22246f	-0.15834211
56	0x3ea9a334	0.33132327
57	0xbdd143c9	-0.10218007
58	0x3e666443	0.22499184
59	0x3df982b0	0.1218313
60	0x3e672df7	0.22576128
61	0x3d3863a8	0.045016915
62	0x3e346f88	0.17620671
63	0xbdd4dbba	-0.10393472

model/tf.math.add/Add/y f4 [16]
0	0xbec22dd5	-0.37925592
1	0x3f3b0d24	0.73066926
2	0x3dab397a	0.08360572
3	0x3e80d3ff	0.2516174
4	0x3eb218ac	0.34784448
5	0xbef320c2	-0.4748593
6	0xbfc6346c	-1.5484748
7	0x3e9c2072	0.30493504
8	0x3e43d81f	0.19125412
9	0x3e8641ab	0.26221976
10	0xbec5eab9	-0.38655642
11	0x3e8c419f	0.27393815
12	0x3e793536	0.24336705
13	0x3d9efe98	0.07763404
14	0x3e7ed118	0.2488445
15	0xbc7b0294	-0.015320439

model/conv2d/Conv2D f4 [16, 3, 3, 3]
0	0xb7a2c333	-1.9402802e-05
1	0x3a464f90	0.00075649563
2	0x3abcb9be	0.0014398617
3	0x3a47fb61	0.0007628706
4	0xbacb989c	-0.0015533152
5	0xb8eaefe5	-0.00011202673
6	0x3a060b41	0.00051133713
7	0xbb3ef528	-0.0029137824
8	0x39980081	0.00028992075
9	0x3b0c4301	0.0021402242
10	0x3ba0f509	0.004912023
11	0x3b036804	0.0020051012
12	0xba1ccf87	-0.0005981852
13	0xbae2e244	-0.0017309864
14	0xbb420284	-0.002960355
15	0xbaddfce0	-0.0016936325
16	0xbb82ce60	-0.003991887
17	0xbb2bd421	-0.0026218968
18	0x3abedad9	0.0014561071
19	0x3beb8a52	0.00718812
20	0x3b28dd77	0.002576677
21	0xb99cb0ee	-0.00029886462
22	0x3a5a6fe6	0.0008332714
23	0xba9a22a7	-0.0011759595
24	0xbadb8f83	-0.0016751144
25	0xbb0a7d3c	-0.0021131774
26	0xba44ff91	-0.0007514889
27	0x37671d70	1.3775527e-05
28	0xb9d587e2	-0.00040727766
29	0xb9a3a3f9	-0.00031211952
30	0x38899881	6.561075e-05
31	0xbabe68e3	-0.0014527108
32	0xb9bd0c0b	-0.00036057862
33	0x3a0fdbf4	0.00054877927
34	0xb97590dc	-0.00023418985
35	0xb9536358	-0.00020159537
36	0x392eb632	0.00016661806
37	0xba11fe23	-0.00055691804
38	0x398fe980	0.00027449057
39	0xbab57b83	-0.0013846013
40	0xbb59149b	-0.0033123854
41	0xba4f718b	-0.00079133426
42	0xb99a4e18	-0.00029431353
43	0xbabcaf09	-0.0014395426
44	0xb8057408	-3.1817734e-05
45	0xb956e1d6	-0.00020492761
46	0xba6ac7e0	-0.00089561753
47	0x380fb982	3.4266624e-05
48	0x392ff467	0.00016780348
49	0xba8c38e2	-0.0010698105
50	0x3ae04245	0.0017109594
51	0xb931ac47	-0.00016944214
52	0xba9297bb	-0.0011184135
53	0x3a898c6f	0.0010494123
54	0x39ba49c7	0.00035531653
55	0xbaaa93ee	-0.0013014057
56	0x3a0bcc82	0.0005332903
57	0xb81804a0	-3.624393e-05
58	0xbabc23c9	-0.0014353927
59	0x3add0079	0.0016861103
60	0x3a321252	0.0006792891
61	0xba6abea4	-0.0008954799
62	0x3948db46	0.00019155172
63	0xb96de39b	-0.00022686871
64	0xba9e15bf	-0.0012060924
65	0x3ae8fb02	0.0017775001
66	0xba239f82	-0.0006241725
67	0xbacd28cd	-0.0015652418
68	0x3b386316	0.0028135232
69	0x39059571	0.0001273954
70	0xba9d3857	-0.001199494
71	0x3aba939b	0.0014234664
72	0xb7d459ec	-2.5314243e-05
73	0xba56a8c5	-0.0008188601
74	0x3a3170a7	0.00067688007
75	0xb9e6a508	-0.00043991976
76	0xbac60bea	-0.0015109752
77	0x3a84cf06	0.0010132499
78	0x3a28f7a7	0.00064455945
79	0xba80a307	-0.0009814211
80	0x3987d82d	0.0002591027
81	0x39c71244	0.00037969847
82	0x3a9f08e2	0.0012133385
83	0x3b15f432	0.0022881147
84	0x3afbffbe	0.0019225997
85	0x3b8b3499	0.0042482135
86	0x3bb1948c	0.0054193195
87	0x3a078ac2	0.0005170518
88	0x3b28f554	0.0025780993
89	0x3b40a481	0.0029394927
90	0xb91953e6	-0.00014622472
91	0xbb0d3d40	-0.00215514
92	0xba49f5c6	-0.00077041646
93	0xbb4737c9	-0.003039824
94	0xbbbe5732	-0.0058087343
95	0xbb84b181	-0.0040494804
96	0xb9e2bdc5	-0.00043247468
97	0xbb217bdd	-0.0024640479
98	0xbb065d81	-0.002050251
99	0xb8837533	-6.268397e-05
100	0x399e62dd	0.00030209767
101	0xba05f0b8	-0.0005109417
102	0x39a4328e	0.00031318184
103	0xba899d55	-0.0010499159
104	0xba28fd6f	-0.0006446456
105	0x3a8d8b0f	0.0010798889
106	0x3a581cb3	0.00082440226
107	0xba092eaf	-0.00052330917
108	0xb904fb90	-0.00012682215
109	0xbb00690f	-0.001959387
110	0x39cc7e9d	0.00039004246
111	0x39d71cf9	0.00041029582
112	0xbac6bc1e	-0.0015162264
113	0x39ecc6c4	0.0004516152
114	0xb8b00280	-8.3928e-05
115	0xba0721fa	-0.0005154904
116	0x39b3323e	0.00034178974
117	0xb9fe274e	-0.0004847594
118	0xbb1c66cc	-0.0023864983
119	0xb9125497	-0.00013955157
120	0xb94e4635	-0.00019671845
121	0xbaff5aa4	-0.0019481969
122	0xb9509843	-0.00019893148
123	0x37a93958	2.0173073e-05
124	0xb9079194	-0.00012928835
125	0x399bd695	0.0002972378
126	0x3a232d78	0.0006224732
127	0xba1006a9	-0.00054941565
128	0xba00d239	-0.0004914138
129	0xb919673f	-0.00014629679
130	0xba5b0f08	-0.0008356427
131	0xbaa09ffd	-0.0012254711
132	0x38876151	6.455428e-05
133	0x3a0c6c3f	0.0005356706
134	0xb9fc9a08	-0.00048179948
135	0xb91019a3	-0.0001374246
136	0x3a0a07b9	0.0005265433
137	0xb9ab6d58	-0.0003269713
138	0x37acec58	2.0614054e-05
139	0x3a9387aa	0.0011255641
140	0x3a239c23	0.0006241223
141	0xb8185c8a	-3.6325808e-05
142	0x3a2758e5	0.0006383791
143	0xb8cbb362	-9.713207e-05
144	0x385e9c12	5.3074276e-05
145	0x39fe79c9	0.00048537392
146	0x3a12576c	0.0005582485
147	0x393d6ac7	0.00018064222
148	0x3a83265e	0.0010005941
149	0x3aae4acf	0.0013297441
150	0x39435a5a	0.00018630308
151	0x3a00321c	0.00048902794
152	0x39ed8f73	0.0004531104
153	0x3a42e12d	0.00074340665
154	0x3a339533	0.00068505405
155	0xba0e5b56	-0.000543048
156	0xb90551fb	-0.00012714409
157	0x38aec7e3	8.334198e-05
158	0xba8b165f	-0.0010611526
159	0x39f7719e	0.00047196163
160	0x3986190e	0.0002557714
161	0xba944767	-0.0011312783
162	0xba96e030	-0.0011510905
163	0x3948fb44	0.0001916709
164	0x3a48763b	0.0007647012
165	0x3a5203c9	0.0008011428
166	0x3b177cef	0.0023115238
167	0x3a0a88d6	0.00052846724
168	0xba83825f	-0.001003336
169	0x3a84f78f	0.0010144579
170	0x3a932cb0	0.0011228528
171	0xb9796048	-0.00023782358
172	0xb8dd0913	-0.000105397914
173	0xb9ab6330	-0.00032689562
174	0x3aafe785	0.0013420439
175	0x3ae76545	0.0017654082
176	0xba3f3af7	-0.0007294858
177	0xba5a8fdb	-0.0008337476
178	0x39e3ee45	0.0004347434
179	0xb88205bb	-6.1999504e-05
180	0xba09f9af	-0.0005263341
181	0xb9a7e00c	-0.0003201965
182	0x3ac7e70c	0.0015251352
183	0xb980dedb	-0.00024580103
184	0xb89dc351	-7.522724e-05
185	0x38e9697a	0.00011129952
186	0xba7f2550	-0.0009733038
187	0x3984ce8c	0.0002533089
188	0x3b15f4e4	0.0022881562
189	0xba579364	-0.0008223562
190	0x3a62fd19	0.00086589303
191	0xba4ade9c	-0.000773886
192	0x38f8c7c0	0.00011862768
193	0x3ae488ef	0.0017435829
194	0xba75fd52	-0.0009383756
195	0xba5c80c1	-0.000841152
196	0x3a83e9c7	0.0010064178
197	0xba7f18a9	-0.00097311527
198	0x39ea439d	0.00044682334
199	0x3a9b2613	0.0011836909
200	0xbabef305	-0.0014568275
201	0x3a977f36	0.0011558298
202	0x3aec6208	0.0018034587
203	0xbadc06ed	-0.0016786732
204	0x39ccebae	0.00039085507
205	0x3aaea2a1	0.0013323614
206	0xbab9a6ed	-0.0014164128
207	0x3a2a284d	0.00064909906
208	0x3a8d95de	0.001080211
209	0xbac4fd11	-0.0015029033
210	0x39faf0b9	0.00047863068
211	0x3a616cfe	0.000859931
212	0xbb17f8fa	-0.0023189173
213	0x39f8a37d	0.00047424054
214	0x3a9b5ac9	0.0011852618
215	0xbaac231c	-0.0013133022
216	0xba1f30ec	-0.00060726586
217	0xb82eee1d	-4.1706593e-05
218	0x387913b4	5.9384576e-05
219	0xba92fbad	-0.0011213921
220	0xbaa929d4	-0.0012906143
221	0xbad3bb71	-0.0016153884
222	0x394bf1c4	0.00019449653
223	0x3b085b4b	0.0020806368
224	0x3ad57432	0.0016285239
225	0xbab54181	-0.0013828726
226	0xbb3eeda2	-0.002913334
227	0xbb0af028	-0.0021200273
228	0xbac5be0d	-0.0015086547
229	0xbb3c8a00	-0.0028768778
230	0xbb220a93	-0.002472554
231	0x3aeb16d3	0.0017935879
232	0x3b5fc16a	0.0034142383
233	0x3b6a60fb	0.0035763371
234	0x3ae040ba	0.0017109134
235	0x39d16e97	0.00039945982
236	0x3a77ca0a	0.00094524084
237	0x39cf63d7	0.00039556503
238	0xba87cd43	-0.0010360855
239	0xba16cad1	-0.0005752268
240	0x3a19233c	0.0005841737
241	0x3a59be00	0.0008306205
242	0x3b0109f3	0.0019689768
243	0xb93033ab	-0.00016803916
244	0x3a693e83	0.00088975596
245	0x3abc4699	0.0014364301
246	0xba413f73	-0.00073718204
247	0xbb71d4e6	-0.003690058
248	0xbaac2702	-0.0013134184
249	0xba37c80c	-0.00070107053
250	0xbace85ea	-0.0015756462
251	0xb860466f	-5.3471358e-05
252	0x3adce102	0.0016851726
253	0x3b63ff56	0.0034789643
254	0x3b3678ce	0.0027843001
255	0xbab0411c	-0.0013447138

model/conv2d_1/Conv2D f4 [16, 1, 1, 16]
0	0x3e73ecad	0.23820753
1	0xbe817e16	-0.25291508
2	0x3c1c70ff	0.009548425
3	0xbdaf5568	-0.08561212
4	0xbd945f8f	-0.07244789
5	0x3e421a44	0.18955332
6	0x3c751a8e	0.014959944
7	0xbbfdd8a7	-0.0077467742
8	0xba5c19a7	-0.00083961565
9	0xbeeefde6	-0.46678084
10	0x3ccd3f3a	0.025054563
11	0xbdf30eaa	-0.11868031
12	0xbe4adee8	-0.19811594
13	0x3e81e116	0.2536704
14	0x3d7b521a	0.061357595
15	0xbc361da0	-0.011115462
16	0x3d21133d	0.039324988
17	0xbc8fdc56	-0.017561119
18	0x3e071633	0.13192062
19	0xbe73a35c	-0.23792785
20	0xbea237ae	-0.31683105
21	0xbea0d65d	-0.31413546
22	0x3d0d0f16	0.034438215
23	0xbdbd4358	-0.092413604
24	0xbdb7bcfd	-0.089715935
25	0xbdb3f685	-0.08787254
26	0xbcd60e3f	-0.02612984
27	0x3ebaf0f8	0.3651197
28	0xbd9bcdca	-0.076076105
29	0xbec64ad5	-0.38728967
30	0x3e0d2d97	0.13786922
31	0x3d8abcc0	0.067742825
32	0x3c494d33	0.012286472
33	0xbec5eed0	-0.38658762
34	0x3d065474	0.032795385
35	0xbd14a8ca	-0.036293782
36	0xbf01339a	-0.5046936
37	0x3e63b4a0	0.22236872
38	0xbd16034d	-0.03662424
39	0xbd010b13	-0.0315047
40	0xbe7de900	-0.24795914
41	0xbea549a2	-0.3228274
42	0xbcea2da4	-0.028586216
43	0xbd8a7fd0	-0.067626595
44	0x3e0d0050	0.1376965
45	0x3e25e38b	0.16200082
46	0x3d5a21ab	0.053254765
47	0xbcc789eb	-0.024357757
48	0x3b30ace9	0.0026958531
49	0x3ed8cf58	0.4234569
50	0x3e8e8c0f	0.2784123
51	0x3de1bb97	0.11022108
52	0x3e473d92	0.19457081
53	0xbd745a18	-0.059656233
54	0x3e8ed073	0.2789341
55	0x3f3e24dc	0.7427499
56	0x3dab09de	0.083514914
57	0x3e0d2a55	0.1378568
58	0xbd19fcf0	-0.037594736
59	0x3d609d4b	0.054837506
60	0x3caa15e9	0.0207624
61	0x3e273217	0.16327702
62	0x3f08311b	0.5319993
63	0x3f052d7c	0.5202253
64	0x3dec9da2	0.115535036
65	0x3cbf0c12	0.023321185
66	0x3df1b193	0.11801448
67	0x3e79d96c	0.24399346
68	0x3e515170	0.20441222
69	0x3c9d837b	0.019227734
70	0x3e5f7c0d	0.21824665
71	0x3d7b4c18	0.061351866
72	0x3e973838	0.2953508
73	0xbe579573	-0.21053104
74	0xbe597cbe	-0.21238992
75	0x3e8cbb87	0.27486822
76	0xbe377c56	-0.17918524
77	0xbe15da72	-0.14634112
78	0xbcb17ec9	-0.021666901
79	0xbd9bec37	-0.07613414
80	0x3ee90273	0.4550968
81	0xbeb14180	-0.34620285
82	0x3c4a34da	0.012341702
83	0x3e9ba4cc	0.30399168
84	0xbe5e6487	-0.21718036
85	0x3eb6e6d4	0.35722983
86	0x3ca7ae71	0.020468922
87	0x3d64d925	0.055871148
88	0x3d8ec798	0.06971663
89	0xbd352cea	-0.044232287
90	0xbeda4a7d	-0.42634955
91	0x3ed60faf	0.4180884
92	0xbf26e733	-0.6519653
93	0x3e0ed8b3	0.13949852
94	0x3db06713	0.0861341
95	0x3d5f9c70	0.05459255
96	0xbd6449f5	-0.055734593
97	0xbdcf0410	-0.10108197
98	0xbe2bb326	-0.16767558
99	0x3e2ac740	0.1667757
100	0xbd9edc29	-0.07756836
101	0x3c163eb3	0.009170222
102	0xbdc3a380	-0.095526695
103	0x3de8dec9	0.11370618
104	0xbea70cdd	-0.32627
105	0x3e8784c8	0.26468492
106	0xbe087fd5	-0.13330014
107	0x3eaaa759	0.333308
108	0x3ecea29b	0.40358433
109	0x3e637ea6	0.22216281
110	0x3c8312ee	0.016000237
111	0x3d28fb79	0.041255448
112	0x3ee68921	0.45026496
113	0xbc02613f	-0.007957756
114	0x3d4d6863	0.05014838
115	0x3ea6f2e0	0.32607174
116	0x3d92c34d	0.07166157
117	0x3ccea973	0.025227284
118	0x3e0c7597	0.13716732
119	0xbda571c1	-0.080783375
120	0x3d14fdae	0.03637474
121	0xbe925aeb	-0.2858499
122	0xbea8ab72	-0.32943302
123	0x3eb426d3	0.3518587
124	0xbee79a69	-0.45234993
125	0xbde33552	-0.110941544
126	0xbd8afcc0	-0.067864895
127	0xbd961a55	-0.07329241
128	0x3e0d4ae4	0.137981
129	0xbd8cb8ee	-0.0687121
130	0xbd04809a	-0.032349207
131	0x3ec238b9	0.379339
132	0xbc30dbd3	-0.010794598
133	0xbd3505dd	-0.044195045
134	0x3c4e0c8b	0.012576233
135	0x3d9d10bf	0.0766921
136	0xbb212cc8	-0.0024593342
137	0xbdd9734f	-0.106176965
138	0xbf041280	-0.5159073
139	0x3ecf65d9	0.4050739
140	0xbcbe1278	-0.023202166
141	0xbd629579	-0.05531833
142	0x3c212f8a	0.009837994
143	0x3c451a21	0.012030155
144	0xbe723179	-0.23651685
145	0xbdf36357	-0.11884182
146	0xbd71e2e3	-0.059054267
147	0x3e92f3a0	0.28701496
148	0xbe68b115	-0.22723801
149	0x3d47f69a	0.048819162
150	0xbbb76c29	-0.0055976105
151	0x3c12d731	0.008962438
152	0xbe18b7c3	-0.1491385
153	0x3e066996	0.13126215
154	0xbedd4a0b	-0.43220553
155	0x3ebdd2f4	0.37075007
156	0x3e723c0d	0.2365572
157	0xbd07c192	-0.033143587
158	0xbca815d3	-0.02051822
159	0xbb92a5a0	-0.0044753104
160	0xbe9b4700	-0.30327606
161	0xbf038aaa	-0.5138346
162	0x3e6256a7	0.22103368
163	0xb94d6d94	-0.00019591145
164	0xbe84b0f7	-0.25916263
165	0x3f2170e6	0.63062894
166	0x3e154b67	0.14579545
167	0xbdf4ef10	-0.1195966
168	0xbde411c0	-0.11136198
169	0x3e47afec	0.19500703
170	0xbb9bde1f	-0.0047567035
171	0xbda67f1f	-0.08129715
172	0x3e6f017e	0.23340413
173	0x3e10b2b9	0.14130677
174	0x3bf50350	0.0074772015
175	0x3d472310	0.048617423
176	0xbd80c261	-0.06287075
177	0xbf06cc1d	-0.526552
178	0x3eb0dac3	0.34541902
179	0x3cb82042	0.02247632
180	0xbf01c2b8	-0.5068774
181	0x3f18c599	0.5967651
182	0x3e3c2301	0.18372728
183	0xbe4cd5fb	-0.20003502
184	0xbcf127be	-0.029437896
185	0x3c876e70	0.016532153
186	0x3c7f2a3f	0.015574037
187	0xbda1f0c1	-0.07907248
188	0xbd5bd0f4	-0.05366607
189	0xbd78e79b	-0.06076775
190	0x3cca40cd	0.024689103
191	0x3bab1158	0.0052205734
192	0xbbe3f689	-0.0069568795
193	0xbe65654f	-0.22401927
194	0xbe88d690	-0.26726198
195	0xbda5566c	-0.08073124
196	0xbcc90b9b	-0.024541667
197	0x3d231ce0	0.03982246
198	0xbf173b42	-0.59074795
199	0xbe082b26	-0.1329771
200	0xbcd70aa7	-0.026250197
201	0xbdd420d4	-0.10357824
202	0x3dc84ec3	0.097806476
203	0x3bdb7136	0.0066968454
204	0x3d2d47c5	0.042304773
205	0xbd56a6f1	-0.0524053
206	0xbf2b3f39	-0.66893345
207	0x3e61930c	0.2202875
208	0xbd43dfb2	-0.047820754
209	0xbe9d984c	-0.30780256
210	0xbf696759	-0.9117332
211	0x3ca0e7fa	0.019641865
212	0xbd1adaeb	-0.037806433
213	0x3db443e2	0.0880201
214	0xbe1ec68b	-0.15505426
215	0x3e6a176c	0.22860497
216	0xbb42152b	-0.0029614668
217	0x3d0433d3	0.032275986
218	0xbc86645e	-0.01640528
219	0x3c5c30eb	0.013439397
220	0xbd21af68	-0.03947392
221	0xbd7a0493	-0.06103952
222	0x3e5292bc	0.20563787
223	0xbe3b8836	-0.18313679
224	0xbe827987	-0.25483343
225	0x3dd160a9	0.102235146
226	0x3d9694e3	0.07352617
227	0x3ed9636e	0.4245867
228	0xbcded396	-0.027200501
229	0xbdbc9f22	-0.0921004
230	0x3e3d25ca	0.18471447
231	0x3c562883	0.013071182
232	0xbf084a69	-0.5323854
233	0xbcfc61e2	-0.030808393
234	0xbea5ae9f	-0.32359788
235	0x3ed03471	0.4066501
236	0x3eb66100	0.3562088
237	0xbe4d2a3f	-0.20035647
238	0xbd3b4dba	-0.045728423
239	0xbd27a8c7	-0.040932443
240	0x3d2c2d57	0.042035427
241	0x3d80e7a6	0.062941834
242	0xbdf80494	-0.12110248
243	0x3f0b3b4a	0.5438734
244	0xbcdcd7f3	-0.026958441
245	0x3d30e04a	0.04318265
246	0xbd8eae8a	-0.069668844
247	0x3d951885	0.07280067
248	0x3bc4794c	0.005995905
249	0xbdabeae7	-0.083944134
250	0xbdd811a9	-0.105502434
251	0x3cfaccd4	0.030615248
252	0x3d9410a2	0.07229735
253	0x3e328334	0.17432863
254	0xbd7339bb	-0.059381228
255	0x3d822499	0.06354637

model/depthwise_conv2d/depthwise f4 [1, 3, 3, 16]
0	0xbe845171	-0.25843385
1	0x3e68a0e1	0.2271762
2	0x3dde5606	0.108562514
3	0x3cfa191e	0.030529555
4	0x3ebf7e88	0.37401223
5	0xbd8a56f3	-0.067548655
6	0xbd812c7e	-0.06307314
7	0x3ea035f5	0.31291166
8	0xbf196d74	-0.5993264
9	0x3ea896d2	0.32927567
10	0xbd2dbb37	-0.04241487
11	0xbf30d967	-0.6908173
12	0x3cd6caa5	0.026219675
13	0xbdf80820	-0.12110925
14	0xbd58df8f	-0.052947577
15	0x3e3ee469	0.18641819
16	0xbf18432d	-0.594775
17	0x3fb0703d	1.3784252
18	0x3f3631f3	0.71169966
19	0x3f1c178c	0.6097343
20	0xbf0d232f	-0.5513181
21	0xbe78c252	-0.24292877
22	0xbeff4264	-0.4985534
23	0xb998f696	-0.0002917542
24	0xbf7c109d	-0.9846285
25	0x3f465f3b	0.7748906
26	0x3e1f35d0	0.15547872
27	0xbfb13171	-1.3843213
28	0x3e83a81a	0.2571419
29	0x3f1aa7d0	0.6041231
30	0xbec92a84	-0.3929025
31	0x3f60dd83	0.87838
32	0x3f36409c	0.71192336
33	0x3f598c03	0.84979266
34	0xbf790c3b	-0.9728429
35	0x3e0d90c5	0.13824756
36	0xbe579c1b	-0.21055643
37	0xbca20b72	-0.019780848
38	0xbd625e89	-0.055265937
39	0xbe29ca71	-0.16581132
40	0xbf99af1a	-1.2006562
41	0x3e491bfa	0.19639578
42	0x3e66fa55	0.22556432
43	0xbf85027f	-1.0391387
44	0x3d9a9241	0.07547427
45	0x3e33567f	0.17513464
46	0x3ea738c9	0.3266051
47	0x3f217239	0.63064915
48	0x3c685e29	0.014182606
49	0xbeec0d77	-0.46104023
50	0xbe9f21e3	-0.3108054
51	0x3dc2d22d	0.09512744
52	0xbe59d4c0	-0.21272564
53	0xbdbac7a4	-0.0912011
54	0x3e6d76dc	0.23189873
55	0x3cfbf74b	0.030757567
56	0xbd46a08f	-0.048492964
57	0x3f3b7bb8	0.73235655
58	0x3d8b536b	0.0680302
59	0xbe7b6e2f	-0.2455375
60	0x3e38cec6	0.18047628
61	0x3de94e5a	0.113918975
62	0x3d841a7a	0.064503625
63	0xbee27633	-0.44230804
64	0xbfa89fa7	-1.3173722
65	0xbfb6e195	-1.4287592
66	0x4005e965	2.0923703
67	0x3ed6612c	0.4187101
68	0x4008da65	2.1383297
69	0xbea44e14	-0.3209082
70	0xbfdc566a	-1.7213871
71	0x3fa58680	1.2931671
72	0x3cf3d4fc	0.029764645
73	0x3b681323	0.0035411797
74	0x3eb03082	0.3441201
75	0x3f273255	0.65311176
76	0x3ec08fb1	0.37609628
77	0x3e587d3b	0.21141522
78	0x3fb432ea	1.4078038
79	0xbfb5423a	-1.4160836
80	0x3fe9d5d7	1.8268384
81	0xbf52402c	-0.8212917
82	0xbff696af	-1.9264735
83	0x3ed66d6a	0.4188035
84	0xbfdb2c2f	-1.7122859
85	0xbeee0af3	-0.4649273
86	0x3f18c2a5	0.59672004
87	0x3f762ceb	0.9616229
88	0xbdbb7ad3	-0.09154286
89	0xbf9fcdce	-1.2484682
90	0x3e90ec03	0.28305063
91	0x3e3da547	0.1852008
92	0x3ec6e9bf	0.3885021
93	0x3ea8cc6d	0.32968464
94	0x3e39ebab	0.18156306
95	0xbf839270	-1.0279064
96	0xbe550227	-0.20801602
97	0x3d448aea	0.04798404
98	0x3e75c335	0.24000247
99	0x3dae6831	0.08515967
100	0x3bf7f31e	0.0075668236
101	0xbda4443d	-0.08020828
102	0xbe3ae1fe	-0.18250272
103	0xbe8618cb	-0.2619079
104	0x3ebf070f	0.37310073
105	0xbe37276a	-0.17886129
106	0x3caf367f	0.02138829
107	0x3f110be1	0.5665875
108	0x3e4bc06a	0.19897619
109	0x3c86b974	0.016445853
110	0x3dddcc1f	0.10829949
111	0x3d23845b	0.039921146
112	0xbed9f6cb	-0.425711
113	0x3d01d148	0.031693727
114	0x3e5425ac	0.20717496
115	0xbdad98c9	-0.08476407
116	0x3ebdf997	0.37104484
117	0xbe05bcb6	-0.13060269
118	0xbd9fd781	-0.07804776
119	0xbf675bc8	-0.9037442
120	0x3eed2bf2	0.4632259
121	0xbfae5b14	-1.3621545
122	0x3e1f9581	0.15584375
123	0x3f780b40	0.96892166
124	0x3e1a6c5d	0.150804
125	0xbe126128	-0.14294875
126	0xbe9f8ea6	-0.3116352
127	0x3deaba90	0.11461365
128	0x3e3376f8	0.17525852
129	0x3d14138b	0.03615145
130	0xbe7a8e80	-0.24468422
131	0x3cb99620	0.022654593
132	0x3c898d0d	0.016790891
133	0xbe9ed1b9	-0.3101938
134	0x3e804171	0.25049928
135	0x3e39691c	0.18106502
136	0x3edafa83	0.4276925
137	0xbecede95	-0.40404192
138	0x3e066595	0.13124688
139	0x3f73ed08	0.95283556
140	0x3e1730a6	0.14764652
141	0xbd7934dd	-0.06084143
142	0x3c2c4e0b	0.010516654
143	0x3e1cf29b	0.15326922

model/conv2d_2/Conv2D f4 [16, 1, 1, 16]
0	0xbd110154	-0.035401657
1	0x3d51718e	0.051133685
2	0xbce61c93	-0.028089797
3	0xbd847128	-0.06466895
4	0x3dd34695	0.10316197
5	0xbe9a3a51	-0.30122617
6	0xbc51a18b	-0.0127948625
7	0x3e9b2029	0.30297974
8	0x3e93c8a0	0.28864002
9	0x3d75e8d3	0.06003649
10	0xbe90abd0	-0.28256083
11	0xbc8da691	-0.01729134
12	0x3e3fe847	0.1874095
13	0x3e50eefe	0.20403668
14	0x3ec1a88a	0.37823898
15	0xbe000542	-0.12502006
16	0xbc7e9b67	-0.0155399805
17	0x3d07eba3	0.033183705
18	0x3bf11a85	0.0073578977
19	0x3e010c18	0.1260227
20	0x3b6e38ac	0.0036349697
21	0xbdfc25f7	-0.12311929
22	0xbd28d392	-0.041217394
23	0xbdba0085	-0.0908213
24	0x3e762d79	0.24040784
25	0xbe41d98e	-0.18930647
26	0xbd5e0875	-0.054207284
27	0x3dbc44d2	0.09192814
28	0xbc52a39e	-0.012856392
29	0x3f562054	0.8364308
30	0x3d2d4909	0.04230598
31	0x3e14ec6b	0.14543311
32	0xbccd37aa	-0.025050957
33	0x3d42b5a5	0.04753651
34	0xbd104cb6	-0.035229407
35	0x3d4f14d4	0.050556973
36	0x3bc35cc2	0.0059619853
37	0x3e60bbf9	0.21946706
38	0x3d058b84	0.032603756
39	0x3cb8ed41	0.022574069
40	0x3ded0031	0.11572302
41	0xbd0570b6	-0.032578193
42	0x3e84323e	0.25819582
43	0x3f85e85a	1.0461533
44	0x3da1984b	0.07890376
45	0x3ddac976	0.10682957
46	0xbd95b580	-0.07310009
47	0x3cefb640	0.029261708
48	0x3d8a3739	0.06748814
49	0x3d7ea82d	0.062172104
50	0x3bacc068	0.00527196
51	0xbc292a45	-0.010325019
52	0xbc60ab33	-0.013712692
53	0x3e4c8c98	0.19975507
54	0x3c2c4808	0.01051522
55	0x3da8b335	0.08237306
56	0xbc8a4c64	-0.016882129
57	0x3ded0c88	0.11574656
58	0xbf3d5a5f	-0.7396602
59	0x3da8cc98	0.08242148
60	0xbd533e9a	-0.051573373
61	0x3e26dbfc	0.16294855
62	0x3d3bee12	0.04588134
63	0x3cb9e125	0.022690365
64	0xbd82da5c	-0.06389305
65	0x3e877fc8	0.26464677
66	0xbc3d1993	-0.011541742
67	0xbd06dcbe	-0.03292536
68	0x3d81395a	0.06309767
69	0xbd171532	-0.036885448
70	0x3b8045b1	0.003914558
71	0x3e517c1d	0.20457502
72	0x3e9cf5f4	0.30656397
73	0x3e124118	0.14282644
74	0x3e7c6731	0.2464874
75	0x3d706649	0.058691297
76	0xbe826778	-0.25469565
77	0xbe1075a3	-0.14107375
78	0x3e3d5737	0.18490301
79	0x3e5a040d	0.21290608
80	0xbe4df858	-0.20114267
81	0xbcc79fae	-0.024368133
82	0xbe0b933c	-0.13630384
83	0xbc4b1b48	-0.012396641
84	0xbd02555d	-0.03181969
85	0xbeabc048	-0.33545136
86	0xbd51960e	-0.051168494
87	0xbd9289eb	-0.07155212
88	0xbdfacb4f	-0.12245809
89	0xbe534808	-0.20632946
90	0x3efe8833	0.49713287
91	0xbd43ccfc	-0.04780291
92	0xbdd22d25	-0.10262517
93	0xbd95a878	-0.073075235
94	0xbd58f459	-0.052967403
95	0xbda07fa9	-0.07836849
96	0xbcd05575	-0.025431374
97	0x3d895bb8	0.06706947
98	0xbc9a6c79	-0.018850552
99	0x3e822d1a	0.25425035
100	0x3d0c2265	0.03421249
101	0xbe170778	-0.14748943
102	0x3d9a0f05	0.07522396
103	0x3d53a39a	0.051669694
104	0x3e5efe38	0.21776664
105	0x3d59ced2	0.053175755
106	0x3e937074	0.28796732
107	0x3e85de58	0.26146197
108	0xbddc4147	-0.10754638
109	0x3ea5c341	0.3237553
110	0x3d952961	0.07283283
111	0x3dab1a21	0.08354593
112	0x3ebcfff6	0.36914033
113	0x3ed299c7	0.41132948
114	0x3ea503c1	0.32229427
115	0xbdee13c9	-0.116248675
116	0xbdaafafb	-0.08348652
117	0xbe93f829	-0.2890027
118	0x3ed9ea67	0.42561647
119	0xbe34d55a	-0.17659512
120	0xbe038e25	-0.12847193
121	0x3e9b4181	0.30323413
122	0xbe207e33	-0.15673141
123	0xbc51bc91	-0.012801305
124	0xbd411134	-0.047135547
125	0xbe3d4eb2	-0.18487051
126	0x3eeda6dc	0.46416366
127	0x3e9d95f3	0.30778465
128	0x3ba37ec1	0.0049894755
129	0xbd3ce006	-0.046112083
130	0xbbdba632	-0.0067031616
131	0x3f77697e	0.96645343
132	0x3ce4979d	0.027904326
133	0xbc323bf8	-0.0108785555
134	0x3af8f0bc	0.0018992643
135	0x3cbca498	0.023027703
136	0xbe5c8aa9	-0.2153727
137	0x3dd21fab	0.102599464
138	0x3c0ccc52	0.008593636
139	0xbca5c1a0	-0.02023393
140	0x3f17e840	0.5933876
141	0x3f4b4e83	0.79416674
142	0xbbf7f82a	-0.0075674253
143	0xbddf85bf	-0.10914182
144	0xbd708fac	-0.058730766
145	0xbcb0370d	-0.021510625
146	0xbec69249	-0.38783482
147	0xbd886e97	-0.06661718
148	0xbe2c44ab	-0.1682307
149	0xbf151db7	-0.58248466
150	0x3e449fbd	0.1920156
151	0x3e34426a	0.1760346
152	0x3d8ed612	0.069744244
153	0x3d87cf84	0.06631377
154	0xbf058514	-0.52156186
155	0x3e33527e	0.17511937
156	0xbd894b7d	-0.06703851
157	0xbe384f8b	-0.17999093
158	0xbea3e337	-0.3200929
159	0x3b0b0898	0.002121484
160	0xbe32e2f4	-0.17469388
161	0xbe837ce8	-0.25681233
162	0xbdfe5220	-0.12418008
163	0x3c62dcb7	0.013846568
164	0xbf386e6a	-0.7204348
165	0xbe53a02f	-0.20666574
166	0x3eb1d008	0.34729028
167	0xbf3df1fc	-0.74197364
168	0xbd796616	-0.060888372
169	0x3f079838	0.5296664
170	0xbd22c3ae	-0.039737396
171	0x3cdc83e8	0.026918367
172	0x3d70623a	0.058687426
173	0x3dc9532c	0.09830317
174	0x3f13cda5	0.57735664
175	0xbe6711e6	-0.22565421
176	0x3cac7184	0.021050222
177	0x3c07c9fa	0.008287901
178	0x3c1b385c	0.009473886
179	0x3bd93f18	0.006629836
180	0x3cd90589	0.026491897
181	0xbd2462bf	-0.040133234
182	0x3de964e9	0.113962
183	0x3d02b3b7	0.03190967
184	0x3ce80afc	0.02832555
185	0xbd33da9e	-0.04390966
186	0x3f2dbce2	0.6786634
187	0xbbc38274	-0.005966479
188	0x3db8eff7	0.09030145
189	0x3e430e8f	0.19048522
190	0x3d0d855d	0.034551013
191	0xbc6baafe	-0.014384029
192	0x3f0c5f87	0.54833263
193	0xbeb09b1b	-0.34493336
194	0x3f0ed643	0.5579569
195	0x3d0e4b5b	0.034739833
196	0x3ebc808a	0.36816818
197	0x3e56b000	0.20965576
198	0x3f13fd03	0.5780794
199	0xbe15d415	-0.14631684
200	0xbe78aa47	-0.24283706
201	0x3d35840f	0.044315394
202	0x3e4f3428	0.2023474
203	0xbe922e5b	-0.2855099
204	0x3cbbd9c9	0.022930996
205	0x3df466f6	0.11933701
206	0xbd8f0f27	-0.06985312
207	0xbe9cb725	-0.30608478
208	0x3cf493b3	0.029855585
209	0x3d78675c	0.060645446
210	0x3d8a2bbd	0.06746624
211	0x3d0f85a3	0.035039555
212	0x3debc5a5	0.11512307
213	0x3f549d8d	0.83052903
214	0xbd4d0fc1	-0.050063852
215	0x3dba9d1d	0.09111998
216	0xbc8947ad	-0.01675781
217	0x3d8b2e73	0.06795969
218	0x3ec6978e	0.38787502
219	0x3e4478aa	0.19186655
220	0xbcfb869a	-0.030703831
221	0x3e6091ab	0.21930568
222	0xbcc14eca	-0.02359714
223	0xbcf0ec88	-0.029409662
224	0x3c36414d	0.011123967
225	0x3cb89efd	0.022536749
226	0x3c4645e4	0.012101624
227	0x3eb94307	0.3618395
228	0x3c4f89f8	0.012667172
229	0xbd3fae63	-0.046797168
230	0x3c8215d7	0.015879555
231	0x3cff00a0	0.031128228
232	0xbc9e7d99	-0.019346999
233	0xbbe537c8	-0.006995175
234	0x3e8c64f2	0.27420765
235	0x3c36f681	0.01116717
236	0xbf450fcb	-0.76977223
237	0xbebc7cb5	-0.36813894
238	0x3d602197	0.054719534
239	0xbba300fe	-0.0049744835
240	0x3ec196bf	0.37810323
241	0xbf0f9f01	-0.56101996
242	0x3ea70dbf	0.32627675
243	0xbde1bd10	-0.11022389
244	0x3de2278b	0.110426985
245	0x3d4aed5a	0.049542762
246	0x3e80fadb	0.25191388
247	0xbe6190ef	-0.22027944
248	0xbea49dc2	-0.3215161
249	0xbe3cb6a1	-0.18429042
250	0x3dedc679	0.11610121
251	0xbe8114e7	-0.2521126
252	0xbb5d17f6	-0.0033736206
253	0xbc87deb4	-0.016585685
254	0xbe2093b2	-0.15681341
255	0xbf08b4db	-0.53400964
