model/model_full_integer_quant.tflite (tflite, 202144 bytes, 43 tensors)

model/conv2d/Conv2D i1 [16, 3, 3, 3]
00000000: 000d 190d e5fe 09cd 0526 5723 f5e1 cce2
00000010: b9d2 1a7f 2efb 0feb e2db f301 f0f4 03c8
00000020: f215 f7f8 06eb 0bcb 81e2 f5c9 fff8 de01
00000030: 06d7 42fa d528 10c5 18fe bf4c 1fd8 09f6
00000040: ca50 e4b9 7f06 ca40 ffdb 1fec bc2e 1dd4
00000050: 0c08 1b32 2a5d 760b 3840 fdd1 efbe 81a7
00000060: f7ca d3ff 07f5 07e9 f218 12f5 f998 1516
00000070: af18 fce5 12e6 81f9 f698 f501 f910 21e3
00000080: e6f8 d4bf 031d e6f3 32e1 026b 3cfd 3df7
00000090: 052e 3511 607f 122f 2b47 41cc f408 9b2d
000000a0: 1894 c10b 2a2c 7f1d c938 3ef3 faee 4a61
000000b0: d8d2 18fd e3ee 54f2 fc06 cb0e 7ed3 2fd6
000000c0: 065f cdd2 37cb 1841 b03f 63a4 1549 b224
000000d0: 3bae 1a2f 811a 41b8 eaff 02d8 d2c7 074a
000000e0: 3acf 99b5 ca9a a840 797f 3d0e 220e dbec
000000f0: 151d 46fb 1b2c ea90 d8eb d0fe 336a 55d7
0 13 25 13 -27 -2 9 -51
5 38 87 35 -11 -31 -52 -30
-71 -46 26 127 46 -5 15 -21
-30 -37 -13 1 -16 -12 3 -56
-14 21 -9 -8 6 -21 11 -53
-127 -30 -11 -55 -1 -8 -34 1
6 -41 66 -6 -43 40 16 -59
24 -2 -65 76 31 -40 9 -10
-54 80 -28 -71 127 6 -54 64
-1 -37 31 -20 -68 46 29 -44
12 8 27 50 42 93 118 11
56 64 -3 -47 -17 -66 -127 -89
-9 -54 -45 -1 7 -11 7 -23
-14 24 18 -11 -7 -104 21 22
-81 24 -4 -27 18 -26 -127 -7
-10 -104 -11 1 -7 16 33 -29
-26 -8 -44 -65 3 29 -26 -13
50 -31 2 107 60 -3 61 -9
5 46 53 17 96 127 18 47
43 71 65 -52 -12 8 -101 45
24 -108 -63 11 42 44 127 29
-55 56 62 -13 -6 -18 74 97
-40 -46 24 -3 -29 -18 84 -14
-4 6 -53 14 126 -45 47 -42
6 95 -51 -46 55 -53 24 65
-80 63 99 -92 21 73 -78 36
59 -82 26 47 -127 26 65 -72
-22 -1 2 -40 -46 -57 7 74
58 -49 -103 -75 -54 -102 -88 64
121 127 61 14 34 14 -37 -20
21 29 70 -5 27 44 -22 -112
-40 -21 -48 -2 51 106 85 -41

model/conv2d_1/Conv2D i1 [16, 1, 1, 16]
00000000: 41bb 03e9 ec34 04fe 0081 07e0 ca45 11fd
00000010: 0dfa 2bb2 9899 0be2 e3e3 f778 e781 2d16
00000020: 039f 08f7 8138 f7f8 c2af f9ef 2329 0dfa
00000030: 0048 3013 21f6 307f 0e18 fa09 041c 5b59
00000040: 320a 3369 5808 5e1a 7fa5 a576 b3c1 f7df
00000050: 59bd 023b d646 040b 0ef7 ad51 811b 110b
00000060: eee0 cb34 e803 e224 9953 d669 7f46 050d
00000070: 7efe 0e5c 1407 27e9 0ab0 a463 81e1 edeb
00000080: 22ef f85d fdf5 0313 ffe6 8164 faf2 0203
00000090: bbdd ef54 bd0e fe03 d427 816d 46f6 faff
000000a0: c399 2d00 cc7f 1de8 ea27 fff0 2f1c 020a
000000b0: f390 4a05 947f 27d5 fa04 03ef f5f3 0501
000000c0: ffd5 cdf1 fb08 90e7 fbec 1301 08f6 812a
000000d0: f9d5 8103 fb0c ea20 0004 fe02 fbf7 1de6
000000e0: c318 1265 faea 2c03 81f9 b361 55d0 f5f6
000000f0: 0a0f e47f fa0a f011 01ec e707 1129 f20f
65 -69 3 -23 -20 52 4 -2
0 -127 7 -32 -54 69 17 -3
13 -6 43 -78 -104 -103 11 -30
-29 -29 -9 120 -25 -127 45 22
3 -97 8 -9 -127 56 -9 -8
-62 -81 -7 -17 35 41 13 -6
0 72 48 19 33 -10 48 127
14 24 -6 9 4 28 91 89
50 10 51 105 88 8 94 26
127 -91 -91 118 -77 -63 -9 -33
89 -67 2 59 -42 70 4 11
14 -9 -83 81 -127 27 17 11
-18 -32 -53 52 -24 3 -30 36
-103 83 -42 105 127 70 5 13
126 -2 14 92 20 7 39 -23
10 -80 -92 99 -127 -31 -19 -21
34 -17 -8 93 -3 -11 3 19
-1 -26 -127 100 -6 -14 2 3
-69 -35 -17 84 -67 14 -2 3
-44 39 -127 109 70 -10 -6 -1
-61 -103 45 0 -52 127 29 -24
-22 39 -1 -16 47 28 2 10
-13 -112 74 5 -108 127 39 -43
-6 4 3 -17 -11 -13 5 1
-1 -43 -51 -15 -5 8 -112 -25
-5 -20 19 1 8 -10 -127 42
-7 -43 -127 3 -5 12 -22 32
0 4 -2 2 -5 -9 29 -26
-61 24 18 101 -6 -22 44 3
-127 -7 -77 97 85 -48 -11 -10
10 15 -28 127 -6 10 -16 17
1 -20 -25 7 17 41 -14 15

model/depthwise_conv2d/depthwise i1 [1, 3, 3, 16]
00000000: ee14 0706 16ee fb1f c11f f0c1 09e7 fb11
00000010: d77b 2b7f dfbe db00 9848 3981 547f dd4f
00000020: 314c c51d f3fb fcf0 8112 53a1 1925 1d39
00000030: 01d7 ed14 f3e7 1103 fb44 19e9 3b18 06d8
00000040: a481 7f57 7fa8 817f 0300 7f3c 7b2c 7f81
00000050: 7fb7 8b57 9a81 2c5e f68c 6811 7f45 10a4
00000060: f204 0f12 00ea f3e6 27ef 0834 4103 0a04
00000070: e203 0dee 16dc faa7 3181 3a59 31e2 e40a
00000080: 0c03 f105 01ab 1212 2dda 3057 30f3 010e
-18 20 7 6 22 -18 -5 31
-63 31 -16 -63 9 -25 -5 17
-41 123 43 127 -33 -66 -37 0
-104 72 57 -127 84 127 -35 79
49 76 -59 29 -13 -5 -4 -16
-127 18 83 -95 25 37 29 57
1 -41 -19 20 -13 -25 17 3
-5 68 25 -23 59 24 6 -40
-92 -127 127 87 127 -88 -127 127
3 0 127 60 123 44 127 -127
127 -73 -117 87 -102 -127 44 94
-10 -116 104 17 127 69 16 -92
-14 4 15 18 0 -22 -13 -26
39 -17 8 52 65 3 10 4
-30 3 13 -18 22 -36 -6 -89
49 -127 58 89 49 -30 -28 10
12 3 -15 5 1 -85 18 18
45 -38 48 87 48 -13 1 14

model/conv2d_2/Conv2D i1 [16, 1, 1, 16]
00000000: f411 f7ea 239b fc66 6114 a1fa 3f45 7fd6
00000010: fe05 0113 01ed faf2 25e3 f80e fe7f 0616
00000020: fd06 fc06 011b 0403 0efc 1f7f 0a0d f704
00000030: 0c0b 01fe fe22 020e fd14 810e f71c 0804
00000040: e66e fbf2 1af1 0255 7f3b 6618 96c6 4d58
00000050: cdfa ddfd f8aa f3ee e1cb 7ff4 e6ed f2ec
00000060: f61a f964 0dc6 1e14 5515 7167 d67f 1d21
00000070: 6571 58e0 e9b1 74d0 dd53 d5fc f3cd 7f54
00000080: 01fa ff7f 04ff 0003 e40d 01fd 4e68 fff2
00000090: f3fb abf1 db81 2a26 0f0e 8e26 f1d9 ba00
000000a0: e2d4 eb02 85dd 3b81 f65b f905 0a11 63d9
000000b0: 0402 0201 05f8 1506 05f8 7fff 1124 06fd
000000c0: 78b4 7b08 512e 7fe0 cb0a 2cc1 051a f1bd
000000d0: 0509 0a05 127f f80e fd0a 3b1d fb22 fcfc
000000e0: 0204 023c 02f8 0305 fdff 2d02 81c3 09ff
000000f0: 5681 4ae7 190b 39ce b7d6 1ac7 fffc dd87
-12 17 -9 -22 35 -101 -4 102
97 20 -95 -6 63 69 127 -42
-2 5 1 19 1 -19 -6 -14
37 -29 -8 14 -2 127 6 22
-3 6 -4 6 1 27 4 3
14 -4 31 127 10 13 -9 4
12 11 1 -2 -2 34 2 14
-3 20 -127 14 -9 28 8 4
-26 110 -5 -14 26 -15 2 85
127 59 102 24 -106 -58 77 88
-51 -6 -35 -3 -8 -86 -13 -18
-31 -53 127 -12 -26 -19 -14 -20
-10 26 -7 100 13 -58 30 20
85 21 113 103 -42 127 29 33
101 113 88 -32 -23 -79 116 -48
-35 83 -43 -4 -13 -51 127 84
1 -6 -1 127 4 -1 0 3
-28 13 1 -3 78 104 -1 -14
-13 -5 -85 -15 -37 -127 42 38
15 14 -114 38 -15 -39 -70 0
-30 -44 -21 2 -123 -35 59 -127
-10 91 -7 5 10 17 99 -39
4 2 2 1 5 -8 21 6
5 -8 127 -1 17 36 6 -3
120 -76 123 8 81 46 127 -32
-53 10 44 -63 5 26 -15 -67
5 9 10 5 18 127 -8 14
-3 10 59 29 -5 34 -4 -4
2 4 2 60 2 -8 3 5
-3 -1 45 2 -127 -61 9 -1
86 -127 74 -25 25 11 57 -50
-73 -42 26 -57 -1 -4 -35 -121

model/depthwise_conv2d_1/depthwise i1 [1, 3, 3, 16]
00000000: efef fd1c a520 0402 fb03 f3ee fd07 0004
00000010: 0330 05f8 0d6b d70c 0e0a ea93 ebef ab05
00000020: fbf9 f8d1 2f0b fd08 fbfd f5fe fc08 1201
00000030: f60d 0139 81fa 0cf4 16f7 f4ad f8e7 defd
00000040: 8181 817f 0a4b 817f 817f 8146 817f ce7f
00000050: 0a0e 039d 6bf0 1bef 1801 01fd faef eef8
00000060: fe05 f707 c7dd 0c03 00fd fe12 fe07 170a
00000070: 27e6 02f9 1181 6700 fa06 f17f fefa 7f12
00000080: f304 fbdb 54f0 f004 0201 f903 fa07 0a0a
-17 -17 -3 28 -91 32 4 2
-5 3 -13 -18 -3 7 0 4
3 48 5 -8 13 107 -41 12
14 10 -22 -109 -21 -17 -85 5
-5 -7 -8 -47 47 11 -3 8
-5 -3 -11 -2 -4 8 18 1
-10 13 1 57 -127 -6 12 -12
22 -9 -12 -83 -8 -25 -34 -3
-127 -127 -127 127 10 75 -127 127
-127 127 -127 70 -127 127 -50 127
10 14 3 -99 107 -16 27 -17
24 1 1 -3 -6 -17 -18 -8
-2 5 -9 7 -57 -35 12 3
0 -3 -2 18 -2 7 23 10
39 -26 2 -7 17 -127 103 0
-6 6 -15 127 -2 -6 127 18
-13 4 -5 -37 84 -16 -16 4
2 1 -7 3 -6 7 10 10

model/conv2d_3/Conv2D i1 [64, 1, 1, 16]
00000000: 0bea eaba f30a 293d 27fa 86e1 7fd3 00e9
00000010: 1ee9 e0ed fdd4 1ade 14f2 effd e57f 0f12
00000020: 1202 a532 0ab7 191f dd7f ef10 d1e7 fe30
00000030: f922 fde6 2a0d b71c 0124 8147 bc09 0c30
00000040: 19fb 8f53 f2c1 f4cd 3c38 2c45 2c81 fd9d
00000050: 0467 f9fc 0708 1302 7ffb 0703 02db f1ed
00000060: fcdc 0b14 d9ac c706 a746 81f5 ab35 2e56
00000070: ee0a 1e09 090c f81d 0af7 811f 09fe 0007
00000080: 0727 5de9 c30d 494c eefb fcf0 81b0 d901
00000090: fc7f d1fb f068 3f8f 3b1f b864 9510 1276
000000a0: 0afd c849 01e1 d720 ff4d 007f eed0 140a
000000b0: 07fb ecea fd0a 39f6 11fb f47f fd13 0bef
000000c0: 001d d2ea dfe7 7f0e fbe6 e3bc e00e e01f
000000d0: d081 0807 013b 015b bdf0 230e dd2a 0b9d
000000e0: fd30 0719 22f2 d381 1964 c809 1f1a 134c
000000f0: ee19 eeff 13e6 aa01 1315 813b 15e6 1e01
11 -22 -22 -70 -13 10 41 61
39 -6 -122 -31 127 -45 0 -23
30 -23 -32 -19 -3 -44 26 -34
20 -14 -17 -3 -27 127 15 18
18 2 -91 50 10 -73 25 31
-35 127 -17 16 -47 -25 -2 48
-7 34 -3 -26 42 13 -73 28
1 36 -127 71 -68 9 12 48
25 -5 -113 83 -14 -63 -12 -51
60 56 44 69 44 -127 -3 -99
4 103 -7 -4 7 8 19 2
127 -5 7 3 2 -37 -15 -19
-4 -36 11 20 -39 -84 -57 6
-89 70 -127 -11 -85 53 46 86
-18 10 30 9 9 12 -8 29
10 -9 -127 31 9 -2 0 7
7 39 93 -23 -61 13 73 76
-18 -5 -4 -16 -127 -80 -39 1
-4 127 -47 -5 -16 104 63 -113
59 31 -72 100 -107 16 18 118
10 -3 -56 73 1 -31 -41 32
-1 77 0 127 -18 -48 20 10
7 -5 -20 -22 -3 10 57 -10
17 -5 -12 127 -3 19 11 -17
0 29 -46 -22 -33 -25 127 14
-5 -26 -29 -68 -32 14 -32 31
-48 -127 8 7 1 59 1 91
-67 -16 35 14 -35 42 11 -99
-3 48 7 25 34 -14 -45 -127
25 100 -56 9 31 26 19 76
-18 25 -18 -1 19 -26 -86 1
19 21 -127 59 21 -26 30 1

model/depthwise_conv2d_2/depthwise i1 [1, 3, 3, 64]
00000000: 410f cc2f f25f d916 0000 fa04 fb0d 24a9
00000010: e5ec 09b9 e081 e524 b12c f681 d31b e6f0
00000020: 2127 06e3 f2ec 07ed fae8 eeed 15ef 18e8
00000030: 1213 1c26 f81c f608 170c e403 f7bb 1f36
00000040: ac07 fc52 4a4f e57f fc4a bb18 c0f4 7fee
00000050: c517 f0f1 6b6a ee7f 1348 1fcc 15f2 a737
00000060: fc4e eb81 7696 e0e9 2af8 23ec c7c3 ff22
00000070: 227f 0e7f de7f cd01 811d deba 9c16 6004
00000080: fdcd 3398 1de9 171d fbf0 f30b 7ffd 040b
00000090: 1c3a e6f3 ee6c 1534 1113 2d0b 0a0c f63b
000000a0: fa0f f8e2 7fda ccf3 05ec f8ee fef4 d1f8
000000b0: f632 113a ecfc e207 b1f6 1def 7f11 d9d2
000000c0: 5ed2 ac7f da62 e81d 3dd4 e406 f1f7 317f
000000d0: 24ed d6aa a3e7 7f24 81f8 08cc 8133 ceb9
000000e0: 1d30 08e8 d12e 017f e91c 0c0b f4e4 dc81
000000f0: 4fb2 17ff f7f3 2317 56d7 2512 fef0 d177
65 15 -52 47 -14 95 -39 22
0 0 -6 4 -5 13 36 -87
-27 -20 9 -71 -32 -127 -27 36
-79 44 -10 -127 -45 27 -26 -16
33 39 6 -29 -14 -20 7 -19
-6 -24 -18 -19 21 -17 24 -24
18 19 28 38 -8 28 -10 8
23 12 -28 3 -9 -69 31 54
-84 7 -4 82 74 79 -27 127
-4 74 -69 24 -64 -12 127 -18
-59 23 -16 -15 107 106 -18 127
19 72 31 -52 21 -14 -89 55
-4 78 -21 -127 118 -106 -32 -23
42 -8 35 -20 -57 -61 -1 34
34 127 14 127 -34 127 -51 1
-127 29 -34 -70 -100 22 96 4
-3 -51 51 -104 29 -23 23 29
-5 -16 -13 11 127 -3 4 11
28 58 -26 -13 -18 108 21 52
17 19 45 11 10 12 -10 59
-6 15 -8 -30 127 -38 -52 -13
5 -20 -8 -18 -2 -12 -47 -8
-10 50 17 58 -20 -4 -30 7
-79 -10 29 -17 127 17 -39 -46
94 -46 -84 127 -38 98 -24 29
61 -44 -28 6 -15 -9 49 127
36 -19 -42 -86 -93 -25 127 36
-127 -8 8 -52 -127 51 -50 -71
29 48 8 -24 -47 46 1 127
-23 28 12 11 -12 -28 -36 -127
79 -78 23 -1 -9 -13 35 23
86 -41 37 18 -2 -16 -47 119

model/conv2d_4/Conv2D i1 [64, 1, 1, 64]
00000000: c217 e1e8 0d04 0f26 3dd1 3501 0406 fcce
00000010: b8ea 25c5 e922 1cc9 171c 0125 1c7f f223
00000020: f3e6 1913 0612 221e 0ced fd3e 1507 e0c5
00000030: 11fa 05fd 2807 6d1b f413 f008 fbdb 0510
00000040: e40f f23a a7ba fdf9 e80f 000b bf0c 1936
00000050: 0fa5 0bc3 f212 e213 ec48 f77f c9fb 072b
00000060: dd78 cc23 031c 04fe 4e10 cc47 df68 dde9
00000070: 0c71 fd65 dbf5 f732 252c 2725 f509 43a4
00000080: f6f8 1707 224e dee1 bdce 6e7b 0e06 28f4
00000090: f7cf f630 d522 ee22 06fb f713 4161 ef3a
000000a0: 127f e304 2109 f7f5 f61f 22fb ef2e e2df
000000b0: e8f6 2b1f f612 e7e8 01fe ff7f 04f5 e460
000000c0: 201c dee0 b9a3 0288 28cf a6c4 3515 f6f2
000000d0: ff13 caec fe2d 00e5 1feb 19ce 3142 b57f
000000e0: d2b9 163f 4bce 05e5 b42f dfe7 ade8 e62c
000000f0: d2fb 05cb 062d 76d7 19c3 edd3 0458 ffe0
-62 23 -31 -24 13 4 15 38
61 -47 53 1 4 6 -4 -50
-72 -22 37 -59 -23 34 28 -55
23 28 1 37 28 127 -14 35
-13 -26 25 19 6 18 34 30
12 -19 -3 62 21 7 -32 -59
17 -6 5 -3 40 7 109 27
-12 19 -16 8 -5 -37 5 16
-28 15 -14 58 -89 -70 -3 -7
-24 15 0 11 -65 12 25 54
15 -91 11 -61 -14 18 -30 19
-20 72 -9 127 -55 -5 7 43
-35 120 -52 35 3 28 4 -2
78 16 -52 71 -33 104 -35 -23
12 113 -3 101 -37 -11 -9 50
37 44 39 37 -11 9 67 -92
-10 -8 23 7 34 78 -34 -31
-67 -50 110 123 14 6 40 -12
-9 -49 -10 48 -43 34 -18 34
6 -5 -9 19 65 97 -17 58
18 127 -29 4 33 9 -9 -11
-10 31 34 -5 -17 46 -30 -33
-24 -10 43 31 -10 18 -25 -24
1 -2 -1 127 4 -11 -28 96
32 28 -34 -32 -71 -93 2 -120
40 -49 -90 -60 53 21 -10 -14
-1 19 -54 -20 -2 45 0 -27
31 -21 25 -50 49 66 -75 127
-46 -71 22 63 75 -50 5 -27
-76 47 -33 -25 -83 -24 -26 44
-46 -5 5 -53 6 45 118 -41
25 -61 -19 -45 4 88 -1 -32

model/depthwise_conv2d_3/depthwise i1 [1, 3, 3, 64]
00000000: cdf0 037f 8314 e04d 2fd1 ecf2 00e9 fa16
00000010: e881 0626 c013 5c81 ee0a 0bde e600 81e4
00000020: 7fa3 850d 1c16 4b03 dc16 d095 2ad6 c8a5
00000030: 7ff5 b814 1481 e8c4 09ff 00e2 2fa0 09fa
00000040: ea81 8159 182a 0c7f 5d4e f2b2 fe81 02f4
00000050: 94c8 1502 e5b6 81a6 ea1a ed92 7fe0 ab12
00000060: 38cd 41e0 240e 480d 8119 fb83 7f1b c7a2
00000070: 63e4 8146 7ff5 412c 7df5 e8f0 0381 e007
00000080: 2386 10d8 2d21 dc3a 13d8 6cc3 fefd fa06
00000090: d0ff 0742 bfe5 91c9 0404 ffe8 e4d7 cdf5
000000a0: 013c 061b fb12 1500 d37f 7fc3 4005 6e81
000000b0: 21fa b12a f705 7fe3 04eb 0ffa efbd 1107
000000c0: 7ff8 de28 c17f e305 7fd5 0611 fdd7 ee27
000000d0: 5893 c7e9 dfa3 1008 d300 e0be 0c06 ddd0
000000e0: fd81 81fa 10ff 2afe 25f4 ec01 1823 86f3
000000f0: 08fc f87f e4ba 0ccc 81d6 1981 7fbe fc02
-51 -16 3 127 -125 20 -32 77
47 -47 -20 -14 0 -23 -6 22
-24 -127 6 38 -64 19 92 -127
-18 10 11 -34 -26 0 -127 -28
127 -93 -123 13 28 22 75 3
-36 22 -48 -107 42 -42 -56 -91
127 -11 -72 20 20 -127 -24 -60
9 -1 0 -30 47 -96 9 -6
-22 -127 -127 89 24 42 12 127
93 78 -14 -78 -2 -127 2 -12
-108 -56 21 2 -27 -74 -127 -90
-22 26 -19 -110 127 -32 -85 18
56 -51 65 -32 36 14 72 13
-127 25 -5 -125 127 27 -57 -94
99 -28 -127 70 127 -11 65 44
125 -11 -24 -16 3 -127 -32 7
35 -122 16 -40 45 33 -36 58
19 -40 108 -61 -2 -3 -6 6
-48 -1 7 66 -65 -27 -111 -55
4 4 -1 -24 -28 -41 -51 -11
1 60 6 27 -5 18 21 0
-45 127 127 -61 64 5 110 -127
33 -6 -79 42 -9 5 127 -29
4 -21 15 -6 -17 -67 17 7
127 -8 -34 40 -63 127 -29 5
127 -43 6 17 -3 -41 -18 39
88 -109 -57 -23 -33 -93 16 8
-45 0 -32 -66 12 6 -35 -48
-3 -127 -127 -6 16 -1 42 -2
37 -12 -20 1 24 35 -122 -13
8 -4 -8 127 -28 -70 12 -52
-127 -42 25 -127 127 -66 -4 2

model/conv2d_5/Conv2D i1 [64, 1, 1, 64]
00000000: 03f3 81f8 15d5 cdd5 2960 e303 eb17 0205
00000010: 02af 1afc c1fb f711 011f e421 17e4 1901
00000020: b41a 1fef d0df ec2f dfda bd0e d758 0530
00000030: 0f23 c0e8 4426 0613 dd13 02de eb3b 04e9
00000040: 6335 1451 7ff2 f7ec e4ec 3feb 3fd7 f1aa
00000050: 36f2 bfd3 26ed 531e f738 fc28 e3f4 11e6
00000060: 16eb da0f e040 cefb 17ef ecca 0ae7 f12b
00000070: 7759 0ee0 f36c 21cc 0d0c 08dd f7f6 ed1c
00000080: d40d 0ee2 f4c6 e502 df32 fae4 ffcc 7fde
00000090: b4f2 0bfa d8f6 d1dd 21f5 27ec 116f e89c
000000a0: f716 1e05 1f08 a7dd d605 d8e4 f9fd 0216
000000b0: 44e3 fb0d f5e3 f0ee 3777 05aa 64d4 c8de
000000c0: 1386 16de 0ab0 1881 03f5 ee4a cf41 bbd2
000000d0: c9d4 b4f2 b6c3 ec02 ed1e c2e7 ed1d d116
000000e0: 4017 0fe3 0500 de2a f52f edbd a323 13f2
000000f0: ffdf 4dd0 37f4 e4f7 e407 f02e 49de f61d
3 -13 -127 -8 21 -43 -51 -43
41 96 -29 3 -21 23 2 5
2 -81 26 -4 -63 -5 -9 17
1 31 -28 33 23 -28 25 1
-76 26 31 -17 -48 -33 -20 47
-33 -38 -67 14 -41 88 5 48
15 35 -64 -24 68 38 6 19
-35 19 2 -34 -21 59 4 -23
99 53 20 81 127 -14 -9 -20
-28 -20 63 -21 63 -41 -15 -86
54 -14 -65 -45 38 -19 83 30
-9 56 -4 40 -29 -12 17 -26
22 -21 -38 15 -32 64 -50 -5
23 -17 -20 -54 10 -25 -15 43
119 89 14 -32 -13 108 33 -52
13 12 8 -35 -9 -10 -19 28
-44 13 14 -30 -12 -58 -27 2
-33 50 -6 -28 -1 -52 127 -34
-76 -14 11 -6 -40 -10 -47 -35
33 -11 39 -20 17 111 -24 -100
-9 22 30 5 31 8 -89 -35
-42 5 -40 -28 -7 -3 2 22
68 -29 -5 13 -11 -29 -16 -18
55 119 5 -86 100 -44 -56 -34
19 -122 22 -34 10 -80 24 -127
3 -11 -18 74 -49 65 -69 -46
-55 -44 -76 -14 -74 -61 -20 2
-19 30 -62 -25 -19 29 -47 22
64 23 15 -29 5 0 -34 42
-11 47 -19 -67 -93 35 19 -14
-1 -33 77 -48 55 -12 -28 -9
-28 7 -16 46 73 -34 -10 29

model/depthwise_conv2d_4/depthwise i1 [1, 3, 3, 64]
00000000: 7f81 fe38 45f3 eaec 2bbe 11e8 a57f f410
00000010: 5b81 37e6 a3a0 b804 bb4e 81f7 0603 ac90
00000020: 19e3 e17f cdec e424 2c38 6e16 38e3 0a11
00000030: fc57 cf75 814d c6f3 f8e2 19bc f626 3681
00000040: 7ccb da54 2a8d cfe4 36f1 36f8 e248 f2eb
00000050: 3bc8 7ff8 8181 9426 1906 8aae 0e20 8d81
00000060: 29a3 dd71 811e 02ef 2867 5e0c 92ff e924
00000070: 017f 8146 d2fd 9381 140c 0ba2 be21 6d41
00000080: 2b8a ed38 239e a2f0 40df f97f 7f25 d50b
00000090: 4efb 132c a9d4 81ef 0500 e3b8 031b d5ad
000000a0: 348a f80f 8313 dee6 7557 7fa8 becc f021
000000b0: f250 d457 0812 c9e3 c7cd 3bdd 84c5 6463
000000c0: 46d0 1e2c 5df0 f711 4181 64d9 ea3c fd03
000000d0: 5699 fc04 fadd 2461 aa7f c4c1 e026 829e
000000e0: 1734 935b e2a0 e603 6dc1 13f4 1201 7f16
000000f0: 03f2 c157 e879 ba04 99a8 4a81 e712 17c1
127 -127 -2 56 69 -13 -22 -20
43 -66 17 -24 -91 127 -12 16
91 -127 55 -26 -93 -96 -72 4
-69 78 -127 -9 6 3 -84 -112
25 -29 -31 127 -51 -20 -28 36
44 56 110 22 56 -29 10 17
-4 87 -49 117 -127 77 -58 -13
-8 -30 25 -68 -10 38 54 -127
124 -53 -38 84 42 -115 -49 -28
54 -15 54 -8 -30 72 -14 -21
59 -56 127 -8 -127 -127 -108 38
25 6 -118 -82 14 32 -115 -127
41 -93 -35 113 -127 30 2 -17
40 103 94 12 -110 -1 -23 36
1 127 -127 70 -46 -3 -109 -127
20 12 11 -94 -66 33 109 65
43 -118 -19 56 35 -98 -94 -16
64 -33 -7 127 127 37 -43 11
78 -5 19 44 -87 -44 -127 -17
5 0 -29 -72 3 27 -43 -83
52 -118 -8 15 -125 19 -34 -26
117 87 127 -88 -66 -52 -16 33
-14 80 -44 87 8 18 -55 -29
-57 -51 59 -35 -124 -59 100 99
70 -48 30 44 93 -16 -9 17
65 -127 100 -39 -22 60 -3 3
86 -103 -4 4 -6 -35 36 97
-86 127 -60 -63 -32 38 -126 -98
23 52 -109 91 -30 -96 -26 3
109 -63 19 -12 18 1 127 22
3 -14 -63 87 -24 121 -70 4
-103 -88 74 -127 -25 18 23 -63

model/conv2d_6/Conv2D i1 [64, 1, 1, 64]
00000000: 3388 e533 3fe1 1e02 e0fe c920 091d e530
00000010: e092 505d d621 e729 f2fc 0e40 12e5 23ce
00000020: e514 50ed 0b10 e5de 39f7 2fce 7fec 380b
00000030: fe39 7c1e 7a28 dc4d a9c9 e3ef 20f6 44e3
00000040: f5e2 1cf7 470d 0518 212e 3100 14f4 3ce8
00000050: dd2c fcd1 38d3 3bf2 5ec0 c92c 3f15 ee14
00000060: e90b 0312 fe16 247f f050 2612 bdf5 dd00
00000070: dcf4 05ea 17f0 2fe6 312c ec2e c923 e222
00000080: f41f 0201 4c4b e8f5 30ec b7cd bd0a 923f
00000090: 70fc d8dc 0b30 f9f3 4166 e2c8 f1c6 00d0
000000a0: f981 d328 f9f2 f8d7 fff3 0da6 d8ae fc27
000000b0: 060a f846 bf41 0714 ce29 d82d d429 f242
000000c0: f3e3 0f20 0006 2106 e771 f9f8 f828 1df4
000000d0: 2eea 052e 1312 0c11 22c2 0ff7 f000 c9f0
000000e0: f5b4 b2ee 3013 211c 7f07 08bb ce26 184a
000000f0: 010d de01 d135 e611 fed4 efff cbcd e80d
51 -120 -27 51 63 -31 30 2
-32 -2 -55 32 9 29 -27 48
-32 -110 80 93 -42 33 -25 41
-14 -4 14 64 18 -27 35 -50
-27 20 80 -19 11 16 -27 -34
57 -9 47 -50 127 -20 56 11
-2 57 124 30 122 40 -36 77
-87 -55 -29 -17 32 -10 68 -29
-11 -30 28 -9 71 13 5 24
33 46 49 0 20 -12 60 -24
-35 44 -4 -47 56 -45 59 -14
94 -64 -55 44 63 21 -18 20
-23 11 3 18 -2 22 36 127
-16 80 38 18 -67 -11 -35 0
-36 -12 5 -22 23 -16 47 -26
49 44 -20 46 -55 35 -30 34
-12 31 2 1 76 75 -24 -11
48 -20 -73 -51 -67 10 -110 63
112 -4 -40 -36 11 48 -7 -13
65 102 -30 -56 -15 -58 0 -48
-7 -127 -45 40 -7 -14 -8 -41
-1 -13 13 -90 -40 -82 -4 39
6 10 -8 70 -65 65 7 20
-50 41 -40 45 -44 41 -14 66
-13 -29 15 32 0 6 33 6
-25 113 -7 -8 -8 40 29 -12
46 -22 5 46 19 18 12 17
34 -62 15 -9 -16 0 -55 -16
-11 -76 -78 -18 48 19 33 28
127 7 8 -69 -50 38 24 74
1 13 -34 1 -47 53 -26 17
-2 -44 -17 -1 -53 -51 -24 13

model/depthwise_conv2d_5/depthwise i1 [1, 3, 3, 64]
00000000: 08c8 e518 0117 1daa e0d1 bd02 200b fdea
00000010: f8e4 3ffb 0045 4481 e9d8 da0f 3c06 fdc6
00000020: e1ff 0555 b8b2 f314 e901 d942 f8f2 7f57
00000030: f9ad 3769 37c7 06f2 042e 7f4a d7d4 052d
00000040: 1b28 06ed 7f08 7ff3 a202 b702 38fe 7f4f
00000050: 3adb 7fc6 3b26 8163 81ae 8101 3b1c f2b8
00000060: 8bed 0508 bcd0 f92c ff11 b637 fbf5 f558
00000070: 7f0c 3155 2dac c99b 7fac 0f32 2331 60f6
00000080: 06f9 e340 28ff 579e 739d bd24 e60e 242e
00000090: 0bd0 0281 bd34 ca77 d6e6 6a04 b80a 0a81
000000a0: dafe e27f 93d7 1b21 fee2 c27f 710a 2f7f
000000b0: 283c 9404 f6e8 bfbd ff08 ce93 7f2f 6ce4
000000c0: 17ce 1f31 03ee 0713 dcaf ec2a 17f4 f1a5
000000d0: fa1a 4e9c 1733 24ec e2d5 db11 c605 0f04
000000e0: f8e4 1412 8b30 d213 daea 0e76 bbf9 730b
000000f0: f181 7f53 3486 fbcd de48 21f1 aab8 e3c8
8 -56 -27 24 1 23 29 -86
-32 -47 -67 2 32 11 -3 -22
-8 -28 63 -5 0 69 68 -127
-23 -40 -38 15 60 6 -3 -58
-31 -1 5 85 -72 -78 -13 20
-23 1 -39 66 -8 -14 127 87
-7 -83 55 105 55 -57 6 -14
4 46 127 74 -41 -44 5 45
27 40 6 -19 127 8 127 -13
-94 2 -73 2 56 -2 127 79
58 -37 127 -58 59 38 -127 99
-127 -82 -127 1 59 28 -14 -72
-117 -19 5 8 -68 -48 -7 44
-1 17 -74 55 -5 -11 -11 88
127 12 49 85 45 -84 -55 -101
127 -84 15 50 35 49 96 -10
6 -7 -29 64 40 -1 87 -98
115 -99 -67 36 -26 14 36 46
11 -48 2 -127 -67 52 -54 119
-42 -26 106 4 -72 10 10 -127
-38 -2 -30 127 -109 -41 27 33
-2 -30 -62 127 113 10 47 127
40 60 -108 4 -10 -24 -65 -67
-1 8 -50 -109 127 47 108 -28
23 -50 31 49 3 -18 7 19
-36 -81 -20 42 23 -12 -15 -91
-6 26 78 -100 23 51 36 -20
-30 -43 -37 17 -58 5 15 4
-8 -28 20 18 -117 48 -46 19
-38 -22 14 118 -69 -7 115 11
-15 -127 127 83 52 -122 -5 -51
-34 72 33 -15 -86 -72 -29 -56

model/conv2d_7/Conv2D i1 [64, 1, 1, 64]
00000000: dfe0 ef13 ca33 1219 1025 e826 60de c429
00000010: ff34 2820 cb24 11f2 c823 2112 2e02 e72f
00000020: 30c5 24f6 2609 eee9 0cbb d122 b9d8 e9fb
00000030: 5e19 1b4d 0b38 81d6 075e 16f0 b923 483d
00000040: 19f3 05f7 1af7 fdf3 fc09 0c00 0621 06f3
00000050: e9d5 e8f7 0bfd fa02 1401 03f2 0381 1408
00000060: f706 e51a ffe6 03c8 c5fe f7fc 0412 f3f6
00000070: fc12 00f5 0109 0f01 fffb edf6 0502 fffe
00000080: cd1b e3f0 e5f8 f716 11df 0ef4 de62 f417
00000090: 2d00 10d2 34de 13e7 e8f4 2be5 2200 8117
000000a0: 1e17 f5d1 03f7 22b9 eeed e80a c5e2 0768
000000b0: d9e5 f9c7 cfd4 0a54 fd1a e7fd 3209 f806
000000c0: 3b12 ccf4 16f4 0336 bfe9 e1fd 0bd1 fcfd
000000d0: ee2a 052f 2d3c 5814 09ee 1610 4134 e8cd
000000e0: 16d1 38e3 46ec 14ef fe81 17f0 e611 dd04
000000f0: 0321 09f8 3e0c 1b15 2023 df3d fe0c d30e
-33 -32 -17 19 -54 51 18 25
16 37 -24 38 96 -34 -60 41
-1 52 40 32 -53 36 17 -14
-56 35 33 18 46 2 -25 47
48 -59 36 -10 38 9 -18 -23
12 -69 -47 34 -71 -40 -23 -5
94 25 27 77 11 56 -127 -42
7 94 22 -16 -71 35 72 61
25 -13 5 -9 26 -9 -3 -13
-4 9 12 0 6 33 6 -13
-23 -43 -24 -9 11 -3 -6 2
20 1 3 -14 3 -127 20 8
-9 6 -27 26 -1 -26 3 -56
-59 -2 -9 -4 4 18 -13 -10
-4 18 0 -11 1 9 15 1
-1 -5 -19 -10 5 2 -1 -2
-51 27 -29 -16 -27 -8 -9 22
17 -33 14 -12 -34 98 -12 23
45 0 16 -46 52 -34 19 -25
-24 -12 43 -27 34 0 -127 23
30 23 -11 -47 3 -9 34 -71
-18 -19 -24 10 -59 -30 7 104
-39 -27 -7 -57 -49 -44 10 84
-3 26 -25 -3 50 9 -8 6
59 18 -52 -12 22 -12 3 54
-65 -23 -31 -3 11 -47 -4 -3
-18 42 5 47 45 60 88 20
9 -18 22 16 65 52 -24 -51
22 -47 56 -29 70 -20 20 -17
-2 -127 23 -16 -26 17 -35 4
3 33 9 -8 62 12 27 21
32 35 -33 61 -2 12 -45 14

model/depthwise_conv2d_6/depthwise i1 [1, 3, 3, 64]
00000000: fefe 0de5 f57f 55dd 65b9 e7fb bb81 1d2c
00000010: a1f7 1db9 0cdb 3f38 e0cd ecfe 0959 ad81
00000020: a792 04fd aefb 0581 0381 c6e6 b8b4 da11
00000030: 4a2f e62d 00bb a82a b781 1242 c89d f646
00000040: d9e3 09df 2f56 7040 4b1f 1771 c1e2 2ace
00000050: a8d1 3c81 2318 6861 1081 cc43 003d 818c
00000060: a95f e800 9131 38d8 488a 8256 81c6 9323
00000070: 1b31 ccf5 15f5 a37f a39c 267f f781 1b7f
00000080: f803 24af 314a 4502 4c0e e83d d95c 7081
00000090: 81ef 0ab2 20bf 7d28 92d6 0701 0b22 e4b9
000000a0: ebf4 00f1 cf0d 0c30 6399 d4dc d01a a665
000000b0: 4531 f701 f906 d428 8de8 0c2e d0a2 333c
000000c0: 1502 0492 1254 28d5 708c f506 a3d0 0949
000000d0: e307 f3ae 04be 3d4a faf2 ace1 0a7f 1100
000000e0: 94c9 f5ee adff 44a9 04ca f9e1 1439 81f6
000000f0: 4e4f a07f e281 8116 f1d5 1727 d5e9 f2d4
-2 -2 13 -27 -11 127 85 -35
101 -71 -25 -5 -69 -127 29 44
-95 -9 29 -71 12 -37 63 56
-32 -51 -20 -2 9 89 -83 -127
-89 -110 4 -3 -82 -5 5 -127
3 -127 -58 -26 -72 -76 -38 17
74 47 -26 45 0 -69 -88 42
-73 -127 18 66 -56 -99 -10 70
-39 -29 9 -33 47 86 112 64
75 31 23 113 -63 -30 42 -50
-88 -47 60 -127 35 24 104 97
16 -127 -52 67 0 61 -127 -116
-87 95 -24 0 -111 49 56 -40
72 -118 -126 86 -127 -58 -109 35
27 49 -52 -11 21 -11 -93 127
-93 -100 38 127 -9 -127 27 127
-8 3 36 -81 49 74 69 2
76 14 -24 61 -39 92 112 -127
-127 -17 10 -78 32 -65 125 40
-110 -42 7 1 11 34 -28 -71
-21 -12 0 -15 -49 13 12 48
99 -103 -44 -36 -48 26 -90 101
69 49 -9 1 -7 6 -44 40
-115 -24 12 46 -48 -94 51 60
21 2 4 -110 18 84 40 -43
112 -116 -11 6 -93 -48 9 73
-29 7 -13 -82 4 -66 61 74
-6 -14 -84 -31 10 127 17 0
-108 -55 -11 -18 -83 -1 68 -87
4 -54 -7 -31 20 57 -127 -10
78 79 -96 127 -30 -127 -127 22
-15 -43 23 39 -43 -23 -14 -44

model/conv2d_8/Conv2D i1 [64, 1, 1, 64]
00000000: 27df 050b 1cfe 240f 0a17 e9f2 010f f4fe
00000010: 13d1 eee0 0f81 1bfe 1c12 f20c 040c faf4
00000020: 38eb 1ceb 1b23 2514 ff4d 6704 e3f1 02fe
00000030: f024 ee12 d91c e7e4 fadd dabe 02f0 f60f
00000040: 0832 1d09 cded fdb2 229f e781 f00d 00ee
00000050: 06e6 d925 ebee 1deb ed92 02f8 e00f 30fd
00000060: 2cb3 04a2 25d4 dc0d edea fbd3 e1af 0604
00000070: f0f5 0713 9c1e c6ce e901 f414 fcd7 ad2e
00000080: 481a 1950 03c7 021a a762 3b21 fa10 c9fc
00000090: e8cf 3917 4852 c7e4 5018 454c b933 edff
000000a0: 410d 3802 f97e 361f 1f1b 051f e54d 221a
000000b0: db52 df2a df29 017f ee38 9636 202e 0849
000000c0: d0e3 f60f f9fd 1109 7f25 3244 26d1 43e4
000000d0: 04b9 0b16 bb04 fa03 d4f1 0e01 fbe3 2522
000000e0: a95c eef3 ceac efdd e4c0 da2c dbf6 e746
000000f0: 27a2 10cf 17d2 26cc 0305 19cf 0f18 0ce8
39 -33 5 11 28 -2 36 15
10 23 -23 -14 1 15 -12 -2
19 -47 -18 -32 15 -127 27 -2
28 18 -14 12 4 12 -6 -12
56 -21 28 -21 27 35 37 20
-1 77 103 4 -29 -15 2 -2
-16 36 -18 18 -39 28 -25 -28
-6 -35 -38 -66 2 -16 -10 15
8 50 29 9 -51 -19 -3 -78
34 -97 -25 -127 -16 13 0 -18
6 -26 -39 37 -21 -18 29 -21
-19 -110 2 -8 -32 15 48 -3
44 -77 4 -94 37 -44 -36 13
-19 -22 -5 -45 -31 -81 6 4
-16 -11 7 19 -100 30 -58 -50
-23 1 -12 20 -4 -41 -83 46
72 26 25 80 3 -57 2 26
-89 98 59 33 -6 16 -55 -4
-24 -49 57 23 72 82 -57 -28
80 24 69 76 -71 51 -19 -1
65 13 56 2 -7 126 54 31
31 27 5 31 -27 77 34 26
-37 82 -33 42 -33 41 1 127
-18 56 -106 54 32 46 8 73
-48 -29 -10 15 -7 -3 17 9
127 37 50 68 38 -47 67 -28
4 -71 11 22 -69 4 -6 3
-44 -15 14 1 -5 -29 37 34
-87 92 -18 -13 -50 -84 -17 -35
-28 -64 -38 44 -37 -10 -25 70
39 -94 16 -49 23 -46 38 -52
3 5 25 -49 15 24 12 -24

model/depthwise_conv2d_7/depthwise i1 [1, 3, 3, 64]
00000000: 4511 3c01 f4fe 0305 1913 0ab0 ff00 ff00
00000010: 0de7 1c20 edf4 0501 c3c3 fb02 ed28 1500
00000020: 4c04 e361 4d00 3c0c 8e01 f734 04f2 a32d
00000030: 06f3 37ff ae59 933d 1a28 fcde fb06 2d33
00000040: 7f20 7981 f112 f8d4 0e4c 2495 eab6 f3f0
00000050: 4feb 9e07 290a 000d 818b ebb2 0033 0ce8
00000060: 7ffb 284e 81ea 370f c9fb eb65 20ff 1850
00000070: eeb2 3f00 817f 814d 7f25 cb98 dcfe 4f1d
00000080: 500d 3cfc 16fd fb02 0d3d 0aa5 f0e4 16c3
00000090: 7ffa 811d ed07 04e7 9700 ffc6 e8f1 4e05
000000a0: 1aff e57f 4b01 5f04 0004 e53e 12f0 e12f
000000b0: 09ad f50e c36c ad3c 1803 bfdd 0b08 3539
000000c0: ea06 e200 9b08 01f1 7f21 ccba 11ed fced
000000d0: 07ce 031e 0ff4 f9fc 08b6 fa26 fe4d 09fe
000000e0: 2cf4 0b1d 59fa 2500 81f0 f617 f4e4 a2f1
000000f0: ffe1 55db 970e cb45 fd7f 0e2c 4705 3b33
69 17 60 1 -12 -2 3 5
25 19 10 -80 -1 0 -1 0
13 -25 28 32 -19 -12 5 1
-61 -61 -5 2 -19 40 21 0
76 4 -29 97 77 0 60 12
-114 1 -9 52 4 -14 -93 45
6 -13 55 -1 -82 89 -109 61
26 40 -4 -34 -5 6 45 51
127 32 121 -127 -15 18 -8 -44
14 76 36 -107 -22 -74 -13 -16
79 -21 -98 7 41 10 0 13
-127 -117 -21 -78 0 51 12 -24
127 -5 40 78 -127 -22 55 15
-55 -5 -21 101 32 -1 24 80
-18 -78 63 0 -127 127 -127 77
127 37 -53 -104 -36 -2 79 29
80 13 60 -4 22 -3 -5 2
13 61 10 -91 -16 -28 22 -61
127 -6 -127 29 -19 7 4 -25
-105 0 -1 -58 -24 -15 78 5
26 -1 -27 127 75 1 95 4
0 4 -27 62 18 -16 -31 47
9 -83 -11 14 -61 108 -83 60
24 3 -65 -35 11 8 53 57
-22 6 -30 0 -101 8 1 -15
127 33 -52 -70 17 -19 -4 -19
7 -50 3 30 15 -12 -7 -4
8 -74 -6 38 -2 77 9 -2
44 -12 11 29 89 -6 37 0
-127 -16 -10 23 -12 -28 -94 -15
-1 -31 85 -37 -105 14 -53 69
-3 127 14 44 71 5 59 51

model/conv2d_9/Conv2D i1 [51, 1, 1, 64]
00000000: 1c1e 01fc cdf9 0bcf bbef fa0f 6314 d72a
00000010: b300 bcf5 fa02 09ff d20b fe40 002e 0081
00000020: 0bf7 1501 2905 06de db0e e110 1942 cff7
00000030: 0101 ef8f 190e ebf7 161e 1b1d df04 03dc
00000040: edfc cbf8 2876 1774 f8fc f912 fc00 0d0e
00000050: ecff ef06 54bb 0b08 0500 981d fc10 09f8
00000060: 01c1 d301 ffde 0a06 097f 9314 fbeb ed3e
00000070: dd02 ff05 0205 0501 2601 0900 d5e3 c8f0
00000080: f71e 200f 050d e145 1df8 0606 cd04 0cfc
00000090: 15a4 f60d 28a4 ecff f0ea f840 b706 bc01
000000a0: 1122 0c0e b513 f5fc 15f0 4fc9 05a4 df57
000000b0: e2eb 30d6 e80b 2528 07dc f613 1514 1d7f
000000c0: ec03 f42a f33b 2ddf 070d 160f f500 1b05
000000d0: fba1 ed18 4fb1 e11e 0be5 e416 b10c b00c
000000e0: 15bf 1c15 6908 f608 fce0 68c8 0ae1 e2c1
000000f0: f93c 1ee2 fb0a 0923 dff4 e821 233a 1f7f
28 30 1 -4 -51 -7 11 -49
-69 -17 -6 15 99 20 -41 42
-77 0 -68 -11 -6 2 9 -1
-46 11 -2 64 0 46 0 -127
11 -9 21 1 41 5 6 -34
-37 14 -31 16 25 66 -49 -9
1 1 -17 -113 25 14 -21 -9
22 30 27 29 -33 4 3 -36
-19 -4 -53 -8 40 118 23 116
-8 -4 -7 18 -4 0 13 14
-20 -1 -17 6 84 -69 11 8
5 0 -104 29 -4 16 9 -8
1 -63 -45 1 -1 -34 10 6
9 127 -109 20 -5 -21 -19 62
-35 2 -1 5 2 5 5 1
38 1 9 0 -43 -29 -56 -16
-9 30 32 15 5 13 -31 69
29 -8 6 6 -51 4 12 -4
21 -92 -10 13 40 -92 -20 -1
-16 -22 -8 64 -73 6 -68 1
17 34 12 14 -75 19 -11 -4
21 -16 79 -55 5 -92 -33 87
-30 -21 48 -42 -24 11 37 40
7 -36 -10 19 21 20 29 127
-20 3 -12 42 -13 59 45 -33
7 13 22 15 -11 0 27 5
-5 -95 -19 24 79 -79 -31 30
11 -27 -28 22 -79 12 -80 12
21 -65 28 21 105 8 -10 8
-4 -32 104 -56 10 -31 -30 -63
-7 60 30 -30 -5 10 9 35
-33 -12 -24 33 35 58 31 127

model/depthwise_conv2d_8/depthwise i1 [1, 3, 3, 51]
00000000: 0002 0c0a f004 eb03 f004 f2fa 15f2 f909
00000010: 0cf2 0307 0bde 0421 04f5 faf2 070c f900
00000020: f910 1afb d5ed 09f7 f2f6 f8f7 26f9 dd08
00000030: 0903 0003 f505 03e4 eef3 eee2 f3e4 0609
00000040: 81e7 f40c 0701 0f0e ea00 0dff edfd ed05
00000050: 10fc 1a22 eef1 f8b8 dc1d f9df fce9 f815
00000060: f5ed 0920 fa03 0001 0d0d f504 fc04 f505
00000070: f5f8 03ef e5ef 1102 010b 0af7 050a 05fe
00000080: fae5 0702 f9f9 0e0a f2fc dbf2 0afa faf7
00000090: fff7 01f7 ff09 1ad7 017f 0a0c 1d81 1122
000000a0: 0f81 0f81 eeda e620 2028 8113 2d2f 811d
000000b0: 7f1b 00e2 0c1c 00e6 13b0 f87f e79c bd09
000000c0: dcee e0f2 dd7f df81 1dfe 5608 897f 7f7f
000000d0: 067f 817f 087f 0b81 7f4d 817f 7f66 7f7f
000000e0: 7f02 7fe9 7f81 8110 7f7f 817f 557f a581
000000f0: 8181 7f81 8181 8181 1581 f37f 7f01 81df
0 2 12 10 -16 4 -21 3
-16 4 -14 -6 21 -14 -7 9
12 -14 3 7 11 -34 4 33
4 -11 -6 -14 7 12 -7 0
-7 16 26 -5 -43 -19 9 -9
-14 -10 -8 -9 38 -7 -35 8
9 3 0 3 -11 5 3 -28
-18 -13 -18 -30 -13 -28 6 9
-127 -25 -12 12 7 1 15 14
-22 0 13 -1 -19 -3 -19 5
16 -4 26 34 -18 -15 -8 -72
-36 29 -7 -33 -4 -23 -8 21
-11 -19 9 32 -6 3 0 1
13 13 -11 4 -4 4 -11 5
-11 -8 3 -17 -27 -17 17 2
1 11 10 -9 5 10 5 -2
-6 -27 7 2 -7 -7 14 10
-14 -4 -37 -14 10 -6 -6 -9
-1 -9 1 -9 -1 9 26 -41
1 127 10 12 29 -127 17 34
15 -127 15 -127 -18 -38 -26 32
32 40 -127 19 45 47 -127 29
127 27 0 -30 12 28 0 -26
19 -80 -8 127 -25 -100 -67 9
-36 -18 -32 -14 -35 127 -33 -127
29 -2 86 8 -119 127 127 127
6 127 -127 127 8 127 11 -127
127 77 -127 127 127 102 127 127
127 2 127 -23 127 -127 -127 16
127 127 -127 127 85 127 -91 -127
-127 -127 127 -127 -127 -127 -127 -127
21 -127 -13 127 127 1 -127 -33

model/conv2d_10/Conv2D i1 [64, 1, 1, 64]
00000000: cd0c 0811 f488 71f0 c6cc 1e0c 39d1 a515
00000010: 10e5 3081 e5ba 01db d748 c129 ffea 77d3
00000020: 940d 0e06 e8a4 1f47 a214 0505 270c ce04
00000030: 13e1 3dee 1832 05e6 1ea2 4e3a 91e9 1903
00000040: 07f5 ef0f fedf ea08 3bf0 f340 151b 0ffb
00000050: 0002 f90a de19 8102 0000 fdef f4fe 24d7
00000060: f81d 21fc f1c9 1deb f720 f918 12fe ffe9
00000070: 2de8 e3fe 6df9 0812 abf3 1a3b 1f00 ffe0
00000080: f7f6 06e9 f5ed d1f1 f32e fb2c d769 faf9
00000090: c5fd 02c8 0420 19e5 cbef 31fd 17e7 08fa
000000a0: fa10 f806 c8ff dee3 00cf effb 0f1c 7f04
000000b0: d501 f4bf 020a f2f8 0401 0713 ffdf 221c
000000c0: ee25 1e38 0c40 42f9 2dfd 0826 72fc f40d
000000d0: 22f6 13d1 b7da f462 4a24 f3c6 98e2 e825
000000e0: bd23 19f2 27be e10d eef0 e725 01c7 e513
000000f0: 7ffa cdd2 ecca 01e5 1e30 1698 752e bcbe
-51 12 8 17 -12 -120 113 -16
-58 -52 30 12 57 -47 -91 21
16 -27 48 -127 -27 -70 1 -37
-41 72 -63 41 -1 -22 119 -45
-108 13 14 6 -24 -92 31 71
-94 20 5 5 39 12 -50 4
19 -31 61 -18 24 50 5 -26
30 -94 78 58 -111 -23 25 3
7 -11 -17 15 -2 -33 -22 8
59 -16 -13 64 21 27 15 -5
0 2 -7 10 -34 25 -127 2
0 0 -3 -17 -12 -2 36 -41
-8 29 33 -4 -15 -55 29 -21
-9 32 -7 24 18 -2 -1 -23
45 -24 -29 -2 109 -7 8 18
-85 -13 26 59 31 0 -1 -32
-9 -10 6 -23 -11 -19 -47 -15
-13 46 -5 44 -41 105 -6 -7
-59 -3 2 -56 4 32 25 -27
-53 -17 49 -3 23 -25 8 -6
-6 16 -8 6 -56 -1 -34 -29
0 -49 -17 -5 15 28 127 4
-43 1 -12 -65 2 10 -14 -8
4 1 7 19 -1 -33 34 28
-18 37 30 56 12 64 66 -7
45 -3 8 38 114 -4 -12 13
34 -10 19 -47 -73 -38 -12 98
74 36 -13 -58 -104 -30 -24 37
-67 35 25 -14 39 -66 -31 13
-18 -16 -25 37 1 -57 -27 19
127 -6 -51 -46 -20 -54 1 -27
30 48 22 -104 117 46 -68 -66

model/depthwise_conv2d_9/depthwise i1 [1, 3, 3, 64]
00000000: 33f9 33e2 cbb1 e8f4 fec8 c5f3 42a4 81fe
00000010: f6f0 12fb 02bf 033b ce21 2039 7f9b 0140
00000020: 723e 3617 f6bf 984d 8153 d6f6 6cbf 810f
00000030: fc3f fdef d500 b430 d8cd fbae e656 b540
00000040: dd05 7feb 818f 8102 dee5 8195 4781 0d7f
00000050: 11ae 7ff3 dd81 ff45 bbf7 2822 f27f fb02
00000060: 813e 61e4 0c1d 81cd f17f 770b f832 007f
00000070: 1b7f b849 a131 81f9 f9b3 81e5 e728 07bc
00000080: eafa 25d1 1098 cd1f 19d8 f1ae 5500 3455
00000090: ccfd 20fa 2eb7 031f 3b81 1344 a93b 12f0
000000a0: daec 4181 f111 dd81 1768 4009 d03b 57fa
000000b0: 1437 c8bc cffa b406 efb4 c6da e2fd 7fdb
000000c0: 7f0c 55a3 a1d7 dad8 f4ac d165 1d8d 9e35
000000d0: e3f0 0303 0ff0 e233 b02e 46fa 5eb0 0e05
000000e0: 5c7f de03 fd81 9c2f d330 e0f0 7f14 ec16
000000f0: 1ab2 3b91 2bfe d954 0db3 d3bd c281 b64a
51 -7 51 -30 -53 -79 -24 -12
-2 -56 -59 -13 66 -92 -127 -2
-10 -16 18 -5 2 -65 3 59
-50 33 32 57 127 -101 1 64
114 62 54 23 -10 -65 -104 77
-127 83 -42 -10 108 -65 -127 15
-4 63 -3 -17 -43 0 -76 48
-40 -51 -5 -82 -26 86 -75 64
-35 5 127 -21 -127 -113 -127 2
-34 -27 -127 -107 71 -127 13 127
17 -82 127 -13 -35 -127 -1 69
-69 -9 40 34 -14 127 -5 2
-127 62 97 -28 12 29 -127 -51
-15 127 119 11 -8 50 0 127
27 127 -72 73 -95 49 -127 -7
-7 -77 -127 -27 -25 40 7 -68
-22 -6 37 -47 16 -104 -51 31
25 -40 -15 -82 85 0 52 85
-52 -3 32 -6 46 -73 3 31
59 -127 19 68 -87 59 18 -16
-38 -20 65 -127 -15 17 -35 -127
23 104 64 9 -48 59 87 -6
20 55 -56 -68 -49 -6 -76 6
-17 -76 -58 -38 -30 -3 127 -37
127 12 85 -93 -95 -41 -38 -40
-12 -84 -47 101 29 -115 -98 53
-29 -16 3 3 15 -16 -30 51
-80 46 70 -6 94 -80 14 5
92 127 -34 3 -3 -127 -100 47
-45 48 -32 -16 127 20 -20 22
26 -78 59 -111 43 -2 -39 84
13 -77 -45 -67 -62 -127 -74 74

model/conv2d_11/Conv2D i1 [64, 1, 1, 64]
00000000: debb e0bf 4de9 ddc5 dc24 eb19 fb3d d313
00000010: 404b 16fc 06bf 190f b80d 2d47 c7eb 2cbb
00000020: 1cfc 812a 07bc 1e41 e1f2 d93a d8c5 edff
00000030: e901 d13a dff4 d115 eae7 f2d2 11d3 69f0
00000040: 161b e2ac 28b6 00d5 022b e21d 0d06 00df
00000050: 3216 f0ab 2ae4 5a15 d8ee 3f09 f12d 11cb
00000060: d603 0b22 11e2 0d07 f0e6 2510 e6db f1fe
00000070: 20fa b97f c3fa ba24 d7de 11fa a1bb 53ff
00000080: dae8 5c2d f2e0 1af4 d7d2 e249 120d e81c
00000090: 00d2 fd0a dc3a d7b2 04eb e710 2ef1 d618
000000a0: d816 1ebb 0527 107f cff7 15ee 2946 1a0a
000000b0: d520 14f0 0624 0e19 0b64 230e 060f f028
000000c0: f4ea ef0c 19bd faf2 f809 db0b 17fe e618
000000d0: 010e af0f 2e19 db02 fdff 08f6 181c ef3b
000000e0: 01dc 1112 fbfb 120a fb25 f8d8 1903 0fc5
000000f0: f7f6 ecee 22be 10e8 1514 19fd 81c0 fd34
-34 -69 -32 -65 77 -23 -35 -59
-36 36 -21 25 -5 61 -45 19
64 75 22 -4 6 -65 25 15
-72 13 45 71 -57 -21 44 -69
28 -4 -127 42 7 -68 30 65
-31 -14 -39 58 -40 -59 -19 -1
-23 1 -47 58 -33 -12 -47 21
-22 -25 -14 -46 17 -45 105 -16
22 27 -30 -84 40 -74 0 -43
2 43 -30 29 13 6 0 -33
50 22 -16 -85 42 -28 90 21
-40 -18 63 9 -15 45 17 -53
-42 3 11 34 17 -30 13 7
-16 -26 37 16 -26 -37 -15 -2
32 -6 -71 127 -61 -6 -70 36
-41 -34 17 -6 -95 -69 83 -1
-38 -24 92 45 -14 -32 26 -12
-41 -46 -30 73 18 13 -24 28
0 -46 -3 10 -36 58 -41 -78
4 -21 -25 16 46 -15 -42 24
-40 22 30 -69 5 39 16 127
-49 -9 21 -18 41 70 26 10
-43 32 20 -16 6 36 14 25
11 100 35 14 6 15 -16 40
-12 -22 -17 12 25 -67 -6 -14
-8 9 -37 11 23 -2 -26 24
1 14 -81 15 46 25 -37 2
-3 -1 8 -10 24 28 -17 59
1 -36 17 18 -5 -5 18 10
-5 37 -8 -40 25 3 15 -59
-9 -10 -20 -18 34 -66 16 -24
21 20 25 -3 -127 -64 -3 52

model/depthwise_conv2d_10/depthwise i1 [1, 3, 3, 64]
00000000: 7f00 e87f d1e3 ea40 31fd cf04 eeec bde1
00000010: 07a7 0ee4 7f59 ffbc e519 1277 3fcc 6401
00000020: 1255 fcf6 de09 5f2d cabf 81f6 4798 a4fc
00000030: 19ba 4e05 16db 810b cecb f910 fdf1 0ee7
00000040: 23f8 8942 dec8 df1d 7fdc 50e2 2b05 c303
00000050: fa84 f429 317f d197 3f12 fb30 7f5e 0e00
00000060: a84a a2b4 c4b9 7f7f 3581 e7c8 7f81 0e12
00000070: ed57 1bbd d981 6781 fc81 0ce9 14ec c2c9
00000080: fe06 0275 bbd1 8113 f69d 30fa 12de 9809
00000090: 14de ee0c ae67 1fa2 167f 0510 7c25 ffac
000000a0: 2935 8124 e0ba fd1d 41d0 e114 08b5 dcf1
000000b0: 107f 5cef fbde 1c6b f0a1 eb19 0a4f 0dcc
000000c0: 7a0e c727 9bc8 002f eff7 3422 1e53 a381
000000d0: e9d4 11f0 14eb 0d29 db08 f66f 71d2 21f8
000000e0: 390c fbe5 827d 5dea b9f6 d50a 16f1 abe7
000000f0: 0407 1db7 e098 98f5 81e7 2f74 05da 33b6
127 0 -24 127 -47 -29 -22 64
49 -3 -49 4 -18 -20 -67 -31
7 -89 14 -28 127 89 -1 -68
-27 25 18 119 63 -52 100 1
18 85 -4 -10 -34 9 95 45
-54 -65 -127 -10 71 -104 -92 -4
25 -70 78 5 22 -37 -127 11
-50 -53 -7 16 -3 -15 14 -25
35 -8 -119 66 -34 -56 -33 29
127 -36 80 -30 43 5 -61 3
-6 -124 -12 41 49 127 -47 -105
63 18 -5 48 127 94 14 0
-88 74 -94 -76 -60 -71 127 127
53 -127 -25 -56 127 -127 14 18
-19 87 27 -67 -39 -127 103 -127
-4 -127 12 -23 20 -20 -62 -55
-2 6 2 117 -69 -47 -127 19
-10 -99 48 -6 18 -34 -104 9
20 -34 -18 12 -82 103 31 -94
22 127 5 16 124 37 -1 -84
41 53 -127 36 -32 -70 -3 29
65 -48 -31 20 8 -75 -36 -15
16 127 92 -17 -5 -34 28 107
-16 -95 -21 25 10 79 13 -52
122 14 -57 39 -101 -56 0 47
-17 -9 52 34 30 83 -93 -127
-23 -44 17 -16 20 -21 13 41
-37 8 -10 111 113 -46 33 -8
57 12 -5 -27 -126 125 93 -22
-71 -10 -43 10 22 -15 -85 -25
4 7 29 -73 -32 -104 -104 -11
-127 -25 47 116 5 -38 51 -74

model/conv2d_12/Conv2D i1 [64, 1, 1, 64]
00000000: ea75 132d cdff 4cde 09f8 0f51 ee4f d6d2
00000010: 488b 1ad5 d481 1d2c f2eb d3e7 e52f d99d
00000020: e018 0704 f3e0 d2d6 6427 400e 4f42 6e42
00000030: affc def1 01fa 918e 20d9 5f30 00bd 1e1a
00000040: fab7 f718 fb0d 00f0 47f2 f1fb 04e3 f010
00000050: c82f f0fd 0cfe e1cd e30f 0700 e2e5 01fe
00000060: 40ec e4ec 1ff5 076b 057f eff8 fcf0 ecb6
00000070: e217 0cf8 f8f0 fbff 02d0 ccda f4f9 0805
00000080: 080b cbff fe0a 21dc f1bd 26f9 13d2 041f
00000090: b710 f5ed 2118 ff32 d2e9 f417 2203 b80c
000000a0: ff1f ef81 f906 ed13 dbf4 c5fc fc1f e513
000000b0: 2a06 30f7 e90c 0a15 140a e607 1005 c0f4
000000c0: 0e3c 0359 112d 2281 f41a 230d 271e eef7
000000d0: e9a6 160b 25f1 1530 4a16 e814 09df 0c34
000000e0: 1814 0d26 2df8 15c8 1e02 2f35 44b7 e2fb
000000f0: 44fe ebe8 0808 0ade fe07 e3f8 e807 2015
-22 117 19 45 -51 -1 76 -34
9 -8 15 81 -18 79 -42 -46
72 -117 26 -43 -44 -127 29 44
-14 -21 -45 -25 -27 47 -39 -99
-32 24 7 4 -13 -32 -46 -42
100 39 64 14 79 66 110 66
-81 -4 -34 -15 1 -6 -111 -114
32 -39 95 48 0 -67 30 26
-6 -73 -9 24 -5 13 0 -16
71 -14 -15 -5 4 -29 -16 16
-56 47 -16 -3 12 -2 -31 -51
-29 15 7 0 -30 -27 1 -2
64 -20 -28 -20 31 -11 7 107
5 127 -17 -8 -4 -16 -20 -74
-30 23 12 -8 -8 -16 -5 -1
2 -48 -52 -38 -12 -7 8 5
8 11 -53 -1 -2 10 33 -36
-15 -67 38 -7 19 -46 4 31
-73 16 -11 -19 33 24 -1 50
-46 -23 -12 23 34 3 -72 12
-1 31 -17 -127 -7 6 -19 19
-37 -12 -59 -4 -4 31 -27 19
42 6 48 -9 -23 12 10 21
20 10 -26 7 16 5 -64 -12
14 60 3 89 17 45 34 -127
-12 26 35 13 39 30 -18 -9
-23 -90 22 11 37 -15 21 48
74 22 -24 20 9 -33 12 52
24 20 13 38 45 -8 21 -56
30 2 47 53 68 -73 -30 -5
68 -2 -21 -24 8 8 10 -34
-2 7 -29 -8 -24 7 32 21

model/depthwise_conv2d_11/depthwise i1 [1, 3, 3, 64]
00000000: 03f9 2ea1 0714 070a 3215 ebea 633e f732
00000010: c4fe fefc 040a 2008 0b31 fe68 ff30 17d0
00000020: 1c26 f6f8 0af6 50a8 51fe 81fd 43be ccd4
00000030: ecf9 0337 ede2 e312 050b 4a1a 02f8 f597
00000040: 7f11 7f81 fd17 1010 31ff fe02 5d1a 171b
00000050: 9df3 f34d 1507 26ee 057f 2707 37f1 c681
00000060: 467f 09f8 0700 7f86 5199 27fd 7f81 019e
00000070: 81c6 037f ff21 f77f 09c1 5803 f719 0c81
00000080: 09fb 25a4 07f7 0e02 2b81 0c0d f8f3 0905
00000090: d3fb fd18 f981 02fc 1056 0ef6 f3f6 0cc8
000000a0: 1dfd fc07 da12 4fac 07fc 1506 4b99 ebc4
000000b0: f0ad e943 5111 f034 f514 5c17 0fed 6ca7
000000c0: 1008 21d4 fecb 0507 2513 fe17 2a79 0b42
000000d0: fe0a f608 fc14 1a05 d29c ce7f f7d2 1df1
000000e0: 4dff 1006 0df2 d897 58d5 ba02 07bb 32ac
000000f0: f5fd 313f e781 ed1e 11ca 7f5a f481 0ec8
3 -7 46 -95 7 20 7 10
50 21 -21 -22 99 62 -9 50
-60 -2 -2 -4 4 10 32 8
11 49 -2 104 -1 48 23 -48
28 38 -10 -8 10 -10 80 -88
81 -2 -127 -3 67 -66 -52 -44
-20 -7 3 55 -19 -30 -29 18
5 11 74 26 2 -8 -11 -105
127 17 127 -127 -3 23 16 16
49 -1 -2 2 93 26 23 27
-99 -13 -13 77 21 7 38 -18
5 127 39 7 55 -15 -58 -127
70 127 9 -8 7 0 127 -122
81 -103 39 -3 127 -127 1 -98
-127 -58 3 127 -1 33 -9 127
9 -63 88 3 -9 25 12 -127
9 -5 37 -92 7 -9 14 2
43 -127 12 13 -8 -13 9 5
-45 -5 -3 24 -7 -127 2 -4
16 86 14 -10 -13 -10 12 -56
29 -3 -4 7 -38 18 79 -84
7 -4 21 6 75 -103 -21 -60
-16 -83 -23 67 81 17 -16 52
-11 20 92 23 15 -19 108 -89
16 8 33 -44 -2 -53 5 7
37 19 -2 23 42 121 11 66
-2 10 -10 8 -4 20 26 5
-46 -100 -50 127 -9 -46 29 -15
77 -1 16 6 13 -14 -40 -105
88 -43 -70 2 7 -69 50 -84
-11 -3 49 63 -25 -127 -19 30
17 -54 127 90 -12 -127 14 -56

model/conv2d_13/Conv2D i1 [34, 1, 1, 64]
00000000: fd03 0516 f7bc f2f7 ff9a 9879 f54e 50bc
00000010: 0803 403f 14a9 be03 fffe 2046 3631 0409
00000020: f794 06ff deed ffee e702 6dff 09e8 300a
00000030: 0434 b8f8 7f29 08f3 0eb1 07f7 c20e aa07
00000040: f66b 01fb 03c1 130e dffa 0600 ff09 140b
00000050: 8100 bd08 0402 05fd fb13 4304 39d9 b01b
00000060: bc01 7a02 043f 98ec fa02 0d09 e92e 21ee
00000070: 4b06 f5ff f210 fd3c 0b3f c4a7 fbfb 0e00
00000080: fae7 0513 15fd 0cfd fbc5 4a32 08dc 0735
00000090: e707 0f29 00ba c8f3 ffe5 1cb2 00df 0ae6
000000a0: 1333 e9fb ecf2 e320 6b0b bc02 0211 01fa
000000b0: fd32 2bf8 34ee 08fb 7ff7 f4ec f9ff e8f6
000000c0: 0f49 05d5 fbfd fefe 0a0d fd00 f10b 091b
000000d0: 50fd fae3 0001 160c f6c3 ae04 0026 d8f7
000000e0: db12 4905 0916 49d9 1d09 0b1d 35e7 0b01
000000f0: e117 ebfa 0a08 ffd3 8101 d6dc 00ff 0c00
-3 3 5 22 -9 -68 -14 -9
-1 -102 -104 121 -11 78 80 -68
8 3 64 63 20 -87 -66 3
-1 -2 32 70 54 49 4 9
-9 -108 6 -1 -34 -19 -1 -18
-25 2 109 -1 9 -24 48 10
4 52 -72 -8 127 41 8 -13
14 -79 7 -9 -62 14 -86 7
-10 107 1 -5 3 -63 19 14
-33 -6 6 0 -1 9 20 11
-127 0 -67 8 4 2 5 -3
-5 19 67 4 57 -39 -80 27
-68 1 122 2 4 63 -104 -20
-6 2 13 9 -23 46 33 -18
75 6 -11 -1 -14 16 -3 60
11 63 -60 -89 -5 -5 14 0
-6 -25 5 19 21 -3 12 -3
-5 -59 74 50 8 -36 7 53
-25 7 15 41 0 -70 -56 -13
-1 -27 28 -78 0 -33 10 -26
19 51 -23 -5 -20 -14 -29 32
107 11 -68 2 2 17 1 -6
-3 50 43 -8 52 -18 8 -5
127 -9 -12 -20 -7 -1 -24 -10
15 73 5 -43 -5 -3 -2 -2
10 13 -3 0 -15 11 9 27
80 -3 -6 -29 0 1 22 12
-10 -61 -82 4 0 38 -40 -9
-37 18 73 5 9 22 73 -39
29 9 11 29 53 -25 11 1
-31 23 -21 -6 10 8 -1 -45
-127 1 -42 -36 0 -1 12 0

model/depthwise_conv2d_12/depthwise i1 [1, 3, 3, 34]
00000000: fe01 03ff fb04 0503 fcf9 0406 fc05 f7ff
00000010: f0fc 0404 fefa f8f9 fafb f305 f7fc 070f
00000020: c6ff f50c e718 e3f7 1f04 f1f4 1a15 e314
00000030: f568 fced 131f dce2 f0e3 f1e7 ee1a eae9
00000040: 1514 def7 fe01 0001 f603 0602 e1fb 0a07
00000050: f908 fbf1 fefc 0506 fcf8 fbfb f9fa f407
00000060: f7fb 0b13 f500 fa08 f30c 000a 0611 05ed
00000070: 0112 fb11 f905 f0fb 0c19 effe e7f6 e7fa
00000080: e203 eaf6 1608 edfa 817f 817f 81f8 7f7f
00000090: f781 7f7f 817f 816a 7f81 7f7f 8181 8181
000000a0: 8181 817f 8181 7f7f 217f fc0c ed14 f608
000000b0: 0619 81e2 0a18 fa19 c881 d5fd 1219 e5f5
000000c0: e0f9 def3 d90a e4f8 1e0c 7ff2 fc04 fe06
000000d0: f70f 090a fafa 0906 f706 f110 ecfa 0407
000000e0: fbf6 f5f7 f5f6 f70a faf6 0511 d600 e90b
000000f0: d814 d47f 2815 e5f2 2e06 d608 0b25 efdf
-2 1 3 -1 -5 4 5 3
-4 -7 4 6 -4 5 -9 -1
-16 -4 4 4 -2 -6 -8 -7
-6 -5 -13 5 -9 -4 7 15
-58 -1 -11 12 -25 24 -29 -9
31 4 -15 -12 26 21 -29 20
-11 104 -4 -19 19 31 -36 -30
-16 -29 -15 -25 -18 26 -22 -23
21 20 -34 -9 -2 1 0 1
-10 3 6 2 -31 -5 10 7
-7 8 -5 -15 -2 -4 5 6
-4 -8 -5 -5 -7 -6 -12 7
-9 -5 11 19 -11 0 -6 8
-13 12 0 10 6 17 5 -19
1 18 -5 17 -7 5 -16 -5
12 25 -17 -2 -25 -10 -25 -6
-30 3 -22 -10 22 8 -19 -6
-127 127 -127 127 -127 -8 127 127
-9 -127 127 127 -127 127 -127 106
127 -127 127 127 -127 -127 -127 -127
-127 -127 -127 127 -127 -127 127 127
33 127 -4 12 -19 20 -10 8
6 25 -127 -30 10 24 -6 25
-56 -127 -43 -3 18 25 -27 -11
-32 -7 -34 -13 -39 10 -28 -8
30 12 127 -14 -4 4 -2 6
-9 15 9 10 -6 -6 9 6
-9 6 -15 16 -20 -6 4 7
-5 -10 -11 -9 -11 -10 -9 10
-6 -10 5 17 -42 0 -23 11
-40 20 -44 127 40 21 -27 -14
46 6 -42 8 11 37 -17 -33

model/conv2d_14/Conv2D i1 [64, 1, 1, 64]
00000000: 25fb 3803 d802 b8f5 fcc1 1ae2 e415 e0ef
00000010: f11c 1d0d 3839 f8fd ffd0 fbd0 e035 11a5
00000020: f9de d6f1 fffb e2f1 4113 0ae7 def0 0afd
00000030: d97f f0ed 02fd ef0e 3e14 dbff 0ff0 f023
00000040: 2435 5008 ec9d f702 fcfb f2f0 fcba 7ffa
00000050: 0fbc 0249 21e9 0a11 2eee 4a47 30e7 ce34
00000060: edf7 e93a e2fa f41b 20f2 fdfd f30d f20f
00000070: de05 2309 f2c8 1028 e998 2cf4 4402 13fe
00000080: f63f 0bfd 4417 1cad 120f 0e4e 15f2 00e2
00000090: ea81 eb1a 2223 0224 121a 0c09 2adf 0011
000000a0: 20ec f40d 72f3 0af3 3106 1e06 0304 e304
000000b0: f6dc ff0e fb2d 190e f326 eff2 e3f2 e11b
000000c0: d8ec 2363 11c7 edfb f410 e00d e9b6 0334
000000d0: e1ec 131f 0b40 0444 f0f8 da22 1513 e714
000000e0: d6fe 9681 4227 981a 0f02 f302 280c e202
000000f0: 2ef0 321b 2aaa 1d16 d822 22ee d675 cd2f
37 -5 56 3 -40 2 -72 -11
-4 -63 26 -30 -28 21 -32 -17
-15 28 29 13 56 57 -8 -3
-1 -48 -5 -48 -32 53 17 -91
-7 -34 -42 -15 -1 -5 -30 -15
65 19 10 -25 -34 -16 10 -3
-39 127 -16 -19 2 -3 -17 14
62 20 -37 -1 15 -16 -16 35
36 53 80 8 -20 -99 -9 2
-4 -5 -14 -16 -4 -70 127 -6
15 -68 2 73 33 -23 10 17
46 -18 74 71 48 -25 -50 52
-19 -9 -23 58 -30 -6 -12 27
32 -14 -3 -3 -13 13 -14 15
-34 5 35 9 -14 -56 16 40
-23 -104 44 -12 68 2 19 -2
-10 63 11 -3 68 23 28 -83
18 15 14 78 21 -14 0 -30
-22 -127 -21 26 34 35 2 36
18 26 12 9 42 -33 0 17
32 -20 -12 13 114 -13 10 -13
49 6 30 6 3 4 -29 4
-10 -36 -1 14 -5 45 25 14
-13 38 -17 -14 -29 -14 -31 27
-40 -20 35 99 17 -57 -19 -5
-12 16 -32 13 -23 -74 3 52
-31 -20 19 31 11 64 4 68
-16 -8 -38 34 21 19 -25 20
-42 -2 -106 -127 66 39 -104 26
15 2 -13 2 40 12 -30 2
46 -16 50 27 42 -86 29 22
-40 34 34 -18 -42 117 -51 47

model/depthwise_conv2d_13/depthwise i1 [1, 3, 3, 64]
00000000: d116 f613 e127 f62a 89ea 1b7f 05f0 3e88
00000010: e204 c881 c001 fc34 4e0d 8165 28c5 66fa
00000020: 8113 04dc 7fbd 40ea 8830 0425 12ec 497b
00000030: f9aa 6ac0 c2e5 4fda 7fe3 2c45 180d 2af4
00000040: c3c9 8105 4c26 e632 d47f 813a fcde 7fab
00000050: 819a 67ae 5c10 16ce 6009 174d 7fd4 4ff5
00000060: 0703 de81 04d4 1c22 8161 f61a 81ed 7c10
00000070: 778e 24b2 4224 e7cc 52c5 196c 1507 fad5
00000080: 5af0 b00d 3c5b f038 9746 18de 1efe 717f
00000090: 99ff 30e8 e00f 0881 1b0b 5d7f 66b2 0ef6
000000a0: 13fa f9b5 c7f7 f6c4 f208 0a57 f61f 4581
000000b0: e77f 81a7 4a30 197f 9cbf faa8 3211 deef
000000c0: ffeb cc12 2607 1b12 f3fb 3703 0202 f3a4
000000d0: 6f01 ae90 a402 100a 250f cd69 ebdf 7ffe
000000e0: c6fc 0ede 74ac 1a2f 91eb 0174 4314 181b
000000f0: dc17 37a2 aaa6 2b22 71d9 0653 3327 7ada
-47 22 -10 19 -31 39 -10 42
-119 -22 27 127 5 -16 62 -120
-30 4 -56 -127 -64 1 -4 52
78 13 -127 101 40 -59 102 -6
-127 19 4 -36 127 -67 64 -22
-120 48 4 37 18 -20 73 123
-7 -86 106 -64 -62 -27 79 -38
127 -29 44 69 24 13 42 -12
-61 -55 -127 5 76 38 -26 50
-44 127 -127 58 -4 -34 127 -85
-127 -102 103 -82 92 16 22 -50
96 9 23 77 127 -44 79 -11
7 3 -34 -127 4 -44 28 34
-127 97 -10 26 -127 -19 124 16
119 -114 36 -78 66 36 -25 -52
82 -59 25 108 21 7 -6 -43
90 -16 -80 13 60 91 -16 56
-105 70 24 -34 30 -2 113 127
-103 -1 48 -24 -32 15 8 -127
27 11 93 127 102 -78 14 -10
19 -6 -7 -75 -57 -9 -10 -60
-14 8 10 87 -10 31 69 -127
-25 127 -127 -89 74 48 25 127
-100 -65 -6 -88 50 17 -34 -17
-1 -21 -52 18 38 7 27 18
-13 -5 55 3 2 2 -13 -92
111 1 -82 -112 -92 2 16 10
37 15 -51 105 -21 -33 127 -2
-58 -4 14 -34 116 -84 26 47
-111 -21 1 116 67 20 24 27
-36 23 55 -94 -86 -90 43 34
113 -39 6 83 51 39 122 -38

model/conv2d_15/Conv2D i1 [64, 1, 1, 64]
00000000: 2bdf 1316 103b ba53 3237 0282 f501 0441
00000010: 3238 1644 cc45 0515 c62d 2092 f263 2ddc
00000020: 5532 ea19 f53a 2e4b 4c3b f5f4 d681 1d0d
00000030: e736 3efe f533 7e5e baf4 3c0e 2712 23fd
00000040: 0400 d9c7 df40 3bb5 14f0 41e1 6603 06d9
00000050: d1e2 1928 20bf 102b 27e6 16f2 cd28 264f
00000060: f7e3 f459 f72f f1e7 e852 7ff3 08a0 1efa
00000070: 0af8 2dba 2917 e7e0 0b61 0dfc dee7 0804
00000080: 147f 2702 13f0 4535 0ff6 aef2 520f 0611
00000090: 281a 0715 36df 4717 f55e f812 2a23 e6fc
000000a0: 0a40 ebf4 26df 17f7 f603 0808 f019 dbdd
000000b0: ed1f e71e f726 010d fa04 120e 3eb8 0301
000000c0: eefa 0df6 ac26 b831 e135 f90d e144 f604
000000d0: 00d0 daff 06dd 15f8 2d2f 0d42 3023 2616
000000e0: dee6 f6fd dced 4c81 1f31 d13f 07ef 176a
000000f0: 2f4c 2328 3ffc 4616 f00f c3be 0b02 216e
43 -33 19 22 16 59 -70 83
50 55 2 -126 -11 1 4 65
50 56 22 68 -52 69 5 21
-58 45 32 -110 -14 99 45 -36
85 50 -22 25 -11 58 46 75
76 59 -11 -12 -42 -127 29 13
-25 54 62 -2 -11 51 126 94
-70 -12 60 14 39 18 35 -3
4 0 -39 -57 -33 64 59 -75
20 -16 65 -31 102 3 6 -39
-47 -30 25 40 32 -65 16 43
39 -26 22 -14 -51 40 38 79
-9 -29 -12 89 -9 47 -15 -25
-24 82 127 -13 8 -96 30 -6
10 -8 45 -70 41 23 -25 -32
11 97 13 -4 -34 -25 8 4
20 127 39 2 19 -16 69 53
15 -10 -82 -14 82 15 6 17
40 26 7 21 54 -33 71 23
-11 94 -8 18 42 35 -26 -4
10 64 -21 -12 38 -33 23 -9
-10 3 8 8 -16 25 -37 -35
-19 31 -25 30 -9 38 1 13
-6 4 18 14 62 -72 3 1
-18 -6 13 -10 -84 38 -72 49
-31 53 -7 13 -31 68 -10 4
0 -48 -38 -1 6 -35 21 -8
45 47 13 66 48 35 38 22
-34 -26 -10 -3 -36 -19 76 -127
31 49 -47 63 7 -17 23 106
47 76 35 40 63 -4 70 22
-16 15 -61 -66 11 2 33 110
